100_cwb+tsmip.ckpt (torch, 929605 bytes, 28 tensors)

conv1.weight f4 [32, 3, 3]
-0.109549746 0.09466717 -0.015911419 0.24236134 -0.045573898 0.082964726 -0.12074373 -0.085123815
-0.33331174 -0.20696154 -0.12381107 0.008654206 0.11514346 0.18983255 -0.20797718 -0.12939087
0.14240386 0.29960912 -0.07599147 0.23391588 -0.057928782 0.019353209 0.28824666 -0.2966972
-0.22691496 -0.104033425 -0.15017146 0.27517018 -0.20459732 -0.13576132 -0.22125733 -0.2944863
-0.18260719 0.3042401 0.16972432 0.1813724 0.02780971 -0.16574325 0.04832627 -0.30102235
-0.22419642 -0.16094466 0.22702941 0.20453866 -0.15228796 -0.020830683 0.22254746 0.34756696
0.12947397 0.043120153 0.230053 -0.18017371 0.08040202 -0.24307725 -0.21218428 -0.16397637
0.13613659 0.13283595 -0.18829748 0.100968614 0.2044349 -0.024015239 0.022980254 0.06446254
0.18641663 0.3008095 -0.23589651 -0.10315886 0.13115339 0.2951324 0.3088723 0.3149711
0.05376508 -0.29871657 0.022955602 -0.20415615 -0.31336325 0.28808948 0.25111303 -0.3316585
0.073254555 -0.04682592 -0.041934192 -0.1380143 0.13196295 -0.18244393 0.124679506 0.18329711
0.24562196 0.14421152 -0.30898398 -0.20058124 0.16481757 0.073877566 -0.24743308 -0.18367614
0.33604395 0.2461445 -0.13027613 -0.08303623 -0.31510437 -0.0073985895 -0.24508251 -0.25065792
-0.017838888 0.04882363 -0.137669 0.20622548 -0.2015988 0.28602204 0.20879081 -0.26975134
-0.076321416 0.014352291 0.068218924 0.09930635 0.1509833 0.024818232 -0.15855224 0.15353669
-0.3022301 -0.18662187 -0.08689807 -0.17917189 -0.1286974 -0.28221044 -0.077007845 0.070476465
-0.20370516 -0.012999377 0.24143332 -0.0291036 0.019999577 -0.015402975 0.0799476 0.20515268
0.30753288 0.21394028 0.3171952 -0.02053612 -0.2956206 -0.15136082 0.23858033 0.010449429
-0.16390897 -0.24982117 -0.30020717 -0.28464428 -0.06427313 0.19040383 0.1869896 -0.31890044
0.21179515 -0.24508572 -0.058738332 -0.12554112 -0.07031893 -0.057784505 -0.28528616 -0.30719718
-0.069168426 -0.0027627898 -0.14629073 0.13171183 -0.2837569 -0.030422568 0.27627176 -0.14177217
0.31877995 0.12624176 -0.30948746 0.20097628 -0.034543272 -0.13593109 0.26592103 -0.25593382
0.04304547 -0.054574724 0.25528744 0.109312214 0.14400752 0.103559025 -0.07851872 -0.053873368
-0.26144177 0.16701947 0.28722972 0.24488208 -0.22397403 0.014990023 -0.21642391 -0.16512555
-0.18608682 0.11395743 -0.19454594 0.0072753965 0.031929635 0.23371844 -0.23254786 -0.20802249
-0.18883894 0.23504664 -0.1105668 0.28143904 0.14040434 0.064552754 0.019788517 -0.06977704
0.041309148 -0.070473544 -0.0093492 0.033438727 -0.25970656 -0.17793646 0.2571643 -0.2847333
-0.022901528 0.31014118 0.107215784 0.016144795 -0.27639621 0.16003783 -0.25489128 -0.11599123
-0.1346303 -0.03301003 0.007266867 0.2590379 0.036079265 0.2820207 0.19006196 -0.23140326
0.1284822 -0.2565515 -0.14270106 0.09146336 0.104508266 0.25167933 -0.10235634 0.0004922751
0.17473124 -0.32011753 0.24462357 -0.26277766 0.012373584 -0.046484627 -0.16373855 0.03537492
0.25978088 -0.11621551 -0.21668863 -0.14431262 -0.31277272 0.15911458 -0.15910251 -0.20045277
00000000: 9e5b e0bd dce0 c13d aa58 82bc 922d 783e
00000010: b2ab 3abd 69e9 a93d 7d48 f7bd 6555 aebd
00000020: d6a7 aabe baed 53be a990 fdbd 5fca 0d3c
00000030: 56d0 eb3d 7763 423e f8f7 54be 0a7f 04be
00000040: 51d2 113e 5e66 993e 6aa1 9bbd a587 6f3e
00000050: bb46 6dbd 9f8a 9e3c 1195 933e b2e8 97be
00000060: 655c 68be 7a0f d5bd 8cc6 19be 1be3 8c3e
00000070: f681 51be 0405 0bbe 4891 62be e9c6 96be
00000080: 61fd 3abe 5cc5 9b3e 36cc 2d3e b0b9 393e
00000090: 30d1 e33c 99b8 29be c4f1 453d 9a1f 9abe
000000a0: bf93 65be adce 24be 667a 683e 9572 513e
000000b0: 60f1 1bbe 1ca5 aabc 7be3 633e 4cf4 b13e
000000c0: d394 043e c29e 303d 0393 6b3e 757f 38be
000000d0: d0a9 a43d 3ee9 78be d646 59be 6ce9 27be
000000e0: 6467 0b3e 2606 083e 0ed1 40be a2c8 ce3d
000000f0: 6257 513e 9bbb c4bc 1641 bc3c f004 843d
00000100: 00e4 3e3e b403 9a3e db8e 71be f444 d3bd
00000110: 134d 063e 981b 973e 8324 9e3e e443 a13e
00000120: c638 5c3d 61f1 98be 630d bc3c 4f0e 51be
00000130: 2671 a0be 7780 933e e391 803e 25cf a9be
00000140: 7c06 963d 89cc 3fbd 30c3 2bbd 9f53 0dbe
00000150: 4c21 073e 95d2 3abe f857 ff3d 3db2 3b3e
00000160: 5384 7b3e 2fac 133e 2633 9ebe 2b65 4dbe
00000170: f0c5 283e 1f4d 973d 195f 7dbe 9915 3cbe
00000180: f40d ac3e 4e0d 7c3e 1b67 05be e60e aabd
00000190: 5c55 a1be de6f f2bb e9f6 7abe 3c56 80be
000001a0: dc22 92bc 49fb 473d 1af9 0cbe c62c 533e
000001b0: ea6f 4ebe 7b71 923e 42cd 553e d91c 8abe
000001c0: 674e 9cbd df25 6b3c 5db6 8b3d 2161 cb3d
000001d0: 5e9b 1a3e 9b4f cb3c 855b 22be b938 1d3e
000001e0: e7bd 9abe ce19 3fbe 9ef7 b1bd d678 37be
000001f0: 40c9 03be e37d 90be 4ab6 9dbd f755 903d
00000200: 1698 50be 57fb 54bc 4c3a 773e ac6a eebc
00000210: 27d6 a33c c25c 7cbc 91bb a33d 8b13 523e
00000220: f374 9d3e 2913 5b3e 6967 a23e 5d3b a8bc
00000230: 955b 97be 55fe 1abe 674e 743e 1534 2b3c
00000240: c1d7 27be 1fd1 7fbe c1b4 99be e5bc 91be
00000250: a1a1 83bd 39f9 423e 347a 3f3e eb46 a3be
00000260: d4e0 583e c0f7 7abe 9b97 70bd da8d 00be
00000270: 5f03 90bd 72af 6cbd 0711 92be f348 9dbe
00000280: 2da8 8dbd ec0f 35bb 3dcd 15be 77df 063e
00000290: 9648 91be c038 f9bc 7e73 8d3e b92c 11be
000002a0: 2037 a33e 8545 013e 2475 9ebe bacc 4d3e
000002b0: 3f7d 0dbd 8531 0bbe cd26 883e c209 83be
000002c0: 7250 303d bf89 5fbd 09b5 823e 15df df3d
000002d0: b576 133e c116 d43d 6cce a0bd 52aa 5cbd
000002e0: b2db 85be 2707 2b3e c60f 933e 5ec2 7a3e
000002f0: 7359 65be b798 753c 3b9e 5dbe ac16 29be
00000300: 8b8d 3ebe 8362 e93d 0d37 47be 7366 ee3b
00000310: a6c8 023d e353 6f3e 0721 6ebe d903 55be
00000320: ff5e 41be 11b0 703e d970 e2bd c718 903e
00000330: 28c6 0f3e 3c34 843d 871b a23c 44e7 8ebd
00000340: c833 293d 6f54 90bd 632d 19bc 0cf7 083d
00000350: 42f8 84be fa34 36be 0aab 833e 90c8 91be
00000360: fc9b bbbc d3ca 9e3e f393 db3d 1742 843c
00000370: ce83 8dbe f5e0 233e 1c81 82be cf8c edbd
00000380: 86dc 09be 8635 07bd e61e ee3b 9ea0 843e
00000390: dac7 133d 0465 903e 9a9f 423e faf4 6cbe
000003a0: d690 033e b85a 83be 3a20 12be 2451 bb3d
000003b0: 6e08 d63d 1ddc 803e 33a0 d1bd 060c 013a
000003c0: bfec 323e 72e6 a3be 9a7e 7a3e cb8a 86be
000003d0: 93ba 4a3c aa66 3ebd 14ab 27be 4be5 103d
000003e0: 0002 853e 6602 eebd a0e3 5dbe b0c6 13be
000003f0: bf23 a0be efee 223e c5eb 22be 7e43 4dbe

conv1.bias f4 [32]
0.10505506 -0.006997608 -0.07484609 -0.20556128 0.23031372 -0.24832614 0.13649438 -0.11231267
-0.16077615 0.05986066 -0.17314628 0.07674613 0.065437496 -0.2474077 0.05562296 0.14178927
0.13197325 -0.04194786 -0.27326733 -0.051427357 0.1158793 -0.12162794 0.12654188 0.22185478
-0.17403218 0.0033770544 0.1377354 0.025899202 0.027762057 0.041697387 -0.26194915 0.026349794
00000000: 1b27 d73d 314c e5bb e848 99bd a87e 52be
00000010: 5cd7 6b3e 3549 7ebe 2fc5 0b3e 2f04 e6bd
00000020: 81a2 24be 7430 753d 424d 31be 132d 9d3d
00000030: 1804 863d 7258 7dbe e7d4 633d 3531 113e
00000040: ff23 073e 85d1 2bbd b2e9 8bbe 7ea5 52bd
00000050: 2052 ed3d 1218 f9bd 3294 013e e62d 633e
00000060: 7e35 32be 9251 5d3b 820a 0d3e 902a d43c
00000070: 416d e33c e1ca 2a3d 331e 86be 86db d73c

bn1.weight f4 [32]
1.0109777 1.002438 1.0124221 1.0038357 0.99433035 0.994146 0.98156345 1.0178062
0.9912702 1.0182611 0.98863584 0.99044055 0.9911615 1.0169374 0.99570256 0.9958043
0.9913022 0.9901746 0.9933609 0.99034107 1.0024229 0.99108917 0.9918828 0.99579227
1.0068794 0.9936568 0.9956125 1.0108341 1.0027729 1.0097576 1.0071496 0.9888097
00000000: b867 813f e34f 803f 0c97 813f b07d 803f
00000010: 6f8c 7e3f 5a80 7e3f be47 7b3f 7947 823f
00000020: e2c3 7d3f 6156 823f 3d17 7d3f 838d 7d3f
00000030: c3bc 7d3f 012b 823f 5de6 7e3f 08ed 7e3f
00000040: fbc5 7d3f 157c 7d3f e64c 7e3f fe86 7d3f
00000050: 654f 803f 05b8 7d3f 08ec 7d3f 3eec 7e3f
00000060: 6de1 803f 4b60 7e3f 76e0 7e3f 0363 813f
00000070: dd5a 803f bd3f 813f 47ea 803f a222 7d3f

bn1.bias f4 [32]
0.0070348596 0.0008758719 0.008366003 0.00046123454 -0.0036695509 0.020711914 -0.0024867344 0.025939263
-0.019513547 0.009678618 -0.0042504943 0.012719812 0.008941127 0.022929516 0.017936286 0.004106981
-0.003379525 0.00048684297 -0.0010146172 0.0009768454 0.008876136 0.0054423995 0.014187645 0.0091829775
0.008742064 0.0010427193 0.022932617 0.009726864 0.019008933 0.022784153 0.008216364 0.0030307262
00000000: ae84 e63b c59a 653a 8f11 093c dad1 f139
00000010: d97c 70bb 08ac a93c 7bf8 22bb 947e d43c
00000020: e0da 9fbc 1193 1e3c bb47 8bbb c266 503c
00000030: ce7d 123c aed6 bb3c 1eef 923c db93 863b
00000040: 057b 5dbb f53e ff39 e7fc 84ba 7e09 803a
00000050: 366d 113c 2856 b23b 4c73 683c 3374 163c
00000060: e03a 0f3c dbab 883a 2fdd bb3c 6d5d 1f3c
00000070: 9fb8 9b3c d5a5 ba3c ee9d 063c 269f 463b

bn1.running_mean f4 [32]
0.116086036 0.0059526227 -0.0754909 -0.22356924 0.20959729 -0.24852473 0.14540716 -0.13570295
-0.1597024 0.06373774 -0.17616382 0.07986405 0.051170092 -0.25529006 0.057470776 0.13695832
0.13888101 -0.031129299 -0.28636682 -0.044039503 0.09873582 -0.12315214 0.1463009 0.21685073
-0.17127578 0.004504134 0.15113655 0.033545494 0.021525567 0.062199753 -0.26164612 0.016954236
00000000: 84be ed3d 380e c33b f99a 9abd 56ef 64be
00000010: aca0 563e 447d 7ebe 9de5 143e b7f5 0abe
00000020: 0789 23be ef88 823d 4a64 34be c38f a33d
00000030: bb97 513d 61b5 82be 7a66 6b3d cd3e 0c3e
00000040: d336 0e3e df02 ffbc ac9e 92be c462 34bd
00000050: 0136 ca3d 3037 fcbd e7cf 153e 1e0e 5e3e
00000060: eb62 2fbe 6a97 933b 8ac3 1a3e 0067 093d
00000070: 6356 b03c 2bc5 7e3d 7bf6 85be 9ce3 8a3c

bn1.running_var f4 [32]
17.688728 18.386095 16.399977 37.965252 20.72642 14.014107 7.117101 48.72675
15.947759 17.369513 28.584684 13.82159 14.319505 20.98443 3.1469731 23.494976
18.378246 16.723843 24.003838 11.178548 23.637926 9.78594 14.01864 5.913374
17.2808 14.400018 6.8954005 17.273708 27.408295 24.857262 24.833206 8.169552
00000000: 8482 8d41 b916 9341 2733 8341 6bdc 1742
00000010: b5cf a541 c839 6041 4bbf e340 31e8 4242
00000020: 052a 7f41 c3f4 8a41 6fad e441 3c25 5d41
00000030: b11c 6541 1de0 a741 0268 4940 b6f5 bb41
00000040: a606 9341 6eca 8541 dc07 c041 55db 3241
00000050: 791a bd41 3693 1c41 594c 6041 5c3a bd40
00000060: 143f 8a41 7966 6641 1fa7 dc40 8e30 8a41
00000070: 3044 db41 acdb c641 68aa c641 7cb6 0241

conv2.weight f4 [64, 32, 3]
0.06205011 0.093362235 0.06307767 0.0059558325 0.032834157 -0.06101515 -0.0926431 -0.08928938
0.1003167 0.05949623 -0.07797917 0.026337378 0.069293864 0.09438132 0.07582875 0.06794463
-0.031918753 -0.041765016 0.07400123 0.04443632 -0.07265717 0.09121124 0.040815625 0.044322528
-0.079989456 0.017450022 -0.046415545 0.08185434 -0.024064088 0.030559981 0.01189482 0.03319911
-0.04759371 0.037287433 -0.082741275 0.012916107 -0.07783461 -0.113568075 -0.09447954 0.07502804
0.056966454 0.09942677 0.06756942 -0.10368153 -0.08560351 -0.028907703 -0.08020469 0.055360515
-0.09218704 -0.062149893 -0.109413385 -0.06698496 0.07730079 0.08057302 0.06635701 0.0763947
0.08079367 -0.03266925 0.032815393 0.07719674 0.02841564 0.09602416 0.040289655 0.052278247
-0.048141707 0.036186107 0.0011654884 -0.03716137 -0.069131486 -0.064786546 -0.084398344 0.057974197
0.064855605 -0.014921739 -0.05531073 0.06666567 0.05472388 -0.0008206608 -0.061591826 0.078738675
0.030097162 -0.090037234 0.09326326 0.07924977 -0.03947626 0.047692046 -0.06832123 -0.02850318
0.07768564 0.0032792187 -0.08104959 -0.03542556 -0.026711494 -0.03174221 0.0014938399 0.088528655
-0.0025321085 -0.07221145 -0.0042225216 0.040789902 0.044525962 -0.09982656 -0.025813755 -0.08281094
-0.05225101 0.029041996 -0.08032337 0.030746961 0.07996094 -0.0008802466 -0.07344435 -0.03833696
0.016923208 -0.0817986 0.044244364 -0.09822707 -0.1005243 -0.106927596 -0.029789831 0.05967039
-0.09842769 0.08147494 -0.043933906 0.019488318 -0.006066449 -0.10188192 0.07712142 0.047387313
0.09707073 0.04603156 -0.071641766 0.08029645 0.0014113587 0.042076483 -0.086429544 -0.03733277
-0.10861973 -0.04864727 0.017098604 -0.08215544 0.026221849 0.053336393 0.011272727 -0.07065909
-0.082917824 -0.033908397 0.040105775 0.09231095 0.052351397 -0.0184965 0.029677784 -0.10741684
-0.09245486 0.040577997 -0.063333176 0.04244123 -0.07787169 -0.05805464 -0.09030962 0.045671523
-0.015221703 0.07141503 0.056091964 0.051028024 -0.002491767 -0.037945207 -0.028768567 0.0074902624
0.044940658 -0.078400746 0.07778266 -0.015047331 -0.091015264 -0.06000681 0.08708562 0.089873396
-0.09641232 0.06505843 0.044408217 0.052906696 0.07763741 -0.06353795 0.023720702 0.033849444
-0.035867557 0.027249962 -0.036006793 0.05572454 -0.035059344 -0.03968312 0.021159347 0.03086985
-0.03979098 0.021315634 0.0697549 -0.0067826766 0.03394294 -0.021146312 0.043780725 -0.06277781
-0.04902879 -0.04884185 0.09558169 -0.02419227 0.003090825 -0.04744483 0.10277287 0.10522732
-0.06537797 -0.07596769 -0.074072435 -0.0005541329 -0.026322406 -0.06513605 -0.030500475 0.022983024
-0.05172012 0.021621129 -0.021456325 -0.044564236 0.018099299 0.08926276 -0.06460863 0.0067380364
-0.036750667 0.1008542 -0.098413 -0.09770448 0.09944957 -0.059552684 0.018604564 0.0016357137
-0.010711225 -0.01358958 0.061722543 0.0038293938 -0.09578745 -0.059688557 -0.03279627 0.05327303
-0.06662958 0.09274108 -0.021048563 -0.011231941 0.08555901 0.057613228 0.089862354 0.061900977
-0.026298383 -0.064012215 -0.0057196785 0.08866675 -0.030486327 -0.09123637 0.045451734 0.10040278
00000000: 4228 7e3d b334 bf3d de2e 813d 2529 c33b
00000010: 1c7d 063d 06eb 79bd aabb bdbd 5add b6bd
00000020: d872 cd3d 52b2 733d 8bb3 9fbd 7cc1 d73c
00000030: f1e9 8d3d fe4a c13d 1b4c 9b3d 8e26 8b3d
00000040: 3dbd 02bd cb11 2bbd f58d 973d dc02 363d
00000050: 48cd 94bd f5cc ba3d 492e 273d 8a8b 353d
00000060: 83d1 a3bd 59f3 8e3c 3a1e 3ebd 40a3 a73d
00000070: 0d22 c5bc ed58 fa3c 7ee2 423c cafb 073d
00000080: 9ff1 42bd b5ba 183d 4274 a9bd 149e 533c
00000090: c167 9fbd 6196 e8bd 7d7e c1bd 4da8 993d
000000a0: a855 693d 43a0 cb3d d661 8a3d fb56 d4bd
000000b0: e550 afbd d9cf ecbc 5b42 a4bd b5c1 623d
000000c0: 8fcc bcbd e390 7ebd 2014 e0bd 692f 89bd
000000d0: e04f 9e3d 7803 a53d 2fe6 873d d374 9c3d
000000e0: 2777 a53d 31d0 05bd 6f69 063d 5319 9e3d
000000f0: ebc7 e83c 51a8 c43d c406 253d b721 563d
00000100: 3d30 45bd e237 143d 4dc3 983a 8536 18bd
00000110: cf94 8dbd cfae 84bd 0ad9 acbd 5a76 6d3d
00000120: 04d3 843d 4f7a 74bc 818d 62bd 0388 883d
00000130: 2626 603d 9d21 57ba b647 7cbd be41 a13d
00000140: 538e f63c 7165 b8bd cf00 bf3d b44d a23d
00000150: dcb1 21bd bc58 433d 00ec 8bbd 807f e9bc
00000160: a619 9f3d 29e8 563b 54fd a5bd 641a 11bd
00000170: 10d2 dabc 1f04 02bd f3cc c33a 834e b53d
00000180: bbf1 25bb 99e3 93bd 145d 8abb 5013 273d
00000190: db60 363d de71 ccbd 5e77 d3bc c898 a9bd
000001a0: 2805 56bd 7be9 ed3c 9480 a4bd 0de1 fb3c
000001b0: 90c2 a33d 59c0 66ba fe69 96bd 3707 1dbd
000001c0: 8aa2 8a3c 0686 a7bd 9439 353d 462b c9bd
000001d0: afdf cdbd dbfc dabd ce09 f4bc f068 743d
000001e0: 7594 c9bd 55dc a63d 0af4 33bd f7a5 9f3c
000001f0: 10c9 c6bb 78a7 d0bd d6f1 9d3d 3319 423d
00000200: 05cd c63d 978b 3c3d ebb8 92bd 7772 a43d
00000210: 57fd b83a 6458 2c3d f901 b1bd 3fea 18bd
00000220: 0574 debd 5c42 47bd 5f12 8c3c 1c41 a8bd
00000230: 34cf d63c 4377 5a3d 3eb1 383c b7b5 90bd
00000240: d2d0 a9bd 88e3 0abd f445 243d 860d bd3d
00000250: 6b6e 563d f985 97bc d31e f33c 5cfd dbbd
00000260: f958 bdbd 1d35 263d d3b4 81bd dbd6 2d3d
00000270: 317b 9fbd b4ca 6dbd 40f4 b8bd 1012 3b3d
00000280: 7364 79bc 0b42 923d b0c0 653d c302 513d
00000290: ea4c 23bb 6f6c 1bbd 0fac ebbc e070 f53b
000002a0: b213 383d 9290 a0bd 844c 9f3d 1589 76bc
000002b0: 3666 babd b3c9 75bd f259 b23d 8b0f b83d
000002c0: d373 c5bd 5b3d 853d 64e5 353d b1b4 583d
000002d0: 5d00 9f3d 2f20 82bd eb51 c23c b7a5 0a3d
000002e0: dce9 12bd 503b df3c dc7b 13bd 6a3f 643d
000002f0: 639a 0fbd c48a 22bd 5e56 ad3c c5e2 fc3c
00000300: defb 22bd 209e ae3c a8db 8e3d 3741 debb
00000310: c107 0b3d 083b adbc 6b53 333d a791 80bd
00000320: 6ad2 48bd 640e 48bd 55c0 c33d de2e c6bc
00000330: 708f 4a3b 8355 42bd 957a d23d 6c81 d73d
00000340: e3e4 85bd f394 9bbd 4ab3 97bd 3b43 11ba
00000350: 16a2 d7bc 0d66 85bd 22dc f9bc e546 bc3c
00000360: 7ad8 53bd cb1e b13c 2dc5 afbc fd88 36bd
00000370: fb44 943c 65cf b63d 8851 84bd bfca dc3b
00000380: de87 16bd a68c ce3d c18c c9bd 4919 c8bd
00000390: 37ac cb3d 84ed 73bd 9968 983c 7265 d63a
000003a0: 227e 2fbc d4a6 5ebc c7d0 7c3d 91f6 7a3b
000003b0: 362c c4bd fd7b 74bd 6255 06bd d234 5a3d
000003c0: 1775 88bd 09ef bd3d 096e acbc 2d06 38bc
000003d0: 9039 af3d d9fb 6b3d c109 b83d e18b 7d3d
000003e0: b56f d7bc d618 83bd 246c bbbb ea96 b53d
000003f0: 76be f9bc 22da babd 992b 3a3d f99f cd3d

conv2.bias f4 [64]
-0.09974786 0.07220681 -0.046900973 0.08788643 -0.020086113 -0.03751316 0.051381763 -0.009339396
-0.06912559 0.010914697 -0.04751934 -0.073696986 -0.06409667 0.03512203 0.008479032 -0.040790994
0.03709942 -0.031362258 -0.07842451 0.03500253 -0.034233257 -0.030368155 0.07362111 0.07650063
-0.09983163 0.08721347 0.092046976 -0.074045785 -0.101795435 -0.079572044 -0.026990063 -0.0044756564
0.02798791 0.024427846 0.020231709 -0.07946613 0.09839014 0.087953225 0.04959802 0.02252853
-0.056671232 0.007962289 -0.073106505 0.09383882 -0.090478465 0.08663594 0.09628637 -0.049552143
-0.09098732 0.036745466 -0.07821924 -0.09429907 -0.061301064 0.07260718 -0.06365141 -0.040764336
-0.041479297 0.07250849 0.039773397 0.058530305 -0.018747745 -0.059669565 0.03683174 0.04156589
00000000: 9b48 ccbd 2ae1 933d 3c1b 40bd cdfd b33d
00000010: a28b a4bc 66a7 19bd af75 523d 4404 19bc
00000020: b891 8dbd 8fd3 323c a4a3 42bd 72ee 96bd
00000030: 1d45 83bd 1edc 0f3d a3eb 0a3c 7514 27bd
00000040: 90f5 173d b675 00bd 089d a0bd d05e 0f3d
00000050: 2c38 0cbd a3c6 f8bc aac6 963d 5dac 9c3d
00000060: 8774 ccbd fa9c b23d 2083 bc3d 51a5 97bd
00000070: 207a d0bd abf6 a2bd 441a ddbc 87a8 92bb
00000080: e746 e53c e81c c83c f8bc a53c 23bf a2bd
00000090: c580 c93d d220 b43d 4b27 4b3d c08d b83c
000000a0: 1820 68bd 4374 023c ddb8 95bd 912e c03d
000000b0: c64c b9bd 2f6e b13d ca31 c53d 30f7 4abd
000000c0: 8f57 babd 6a82 163d 6931 a0bd df1f c1bd
000000d0: d316 7bbd 13b3 943d ac5b 82bd 81f8 26bd
000000e0: 32e6 29bd 557f 943d 6ee9 223d 79bd 6f3d
000000f0: df94 99bc 1368 74bd e1dc 163d ff40 2a3d

bn2.weight f4 [64]
1.0108465 1.0096066 1.0154508 1.0133152 1.0110314 1.0105413 1.0146921 1.0058385
1.0093699 1.0012558 1.0064627 1.0102792 1.0143963 1.014604 1.0127921 1.0152422
1.0196675 1.0118076 1.016774 1.0080351 1.0123453 1.0091639 1.0108777 1.0121671
1.0064765 1.009257 1.0059248 1.0103756 1.0035821 1.008572 1.0080762 1.0153142
1.0098852 1.0089887 1.0112903 1.0129126 1.0142772 1.0017438 1.0174025 1.0026207
1.011398 1.0105046 1.0101827 1.006317 1.0195844 1.0092062 1.0105125 1.0095423
1.0107042 1.0084647 1.0078152 1.0113059 1.0083678 1.0113941 1.0096718 1.0184091
1.0090996 1.0023466 1.0026528 1.0100105 1.0067468 1.0086232 1.0112687 1.0131795
00000000: 6b63 813f ca3a 813f 4bfa 813f 50b4 813f
00000010: 7a69 813f 6b59 813f 6ee1 813f 51bf 803f
00000020: 0833 813f 2629 803f c5d3 803f d450 813f
00000030: bdd7 813f 8bde 813f 2ca3 813f 75f3 813f
00000040: 7784 823f e982 813f a725 823f 4b07 813f
00000050: 8894 813f 482c 813f 7164 813f b18e 813f
00000060: 39d4 803f 552f 813f 25c2 803f fd53 813f
00000070: 6175 803f e318 813f a408 813f d1f5 813f
00000080: eb43 813f 8b26 813f f671 813f 1fa7 813f
00000090: d6d3 813f 2439 803f 3f3a 823f e055 803f
000000a0: 7d75 813f 3758 813f ab4d 813f ffce 803f
000000b0: be81 823f ab2d 813f 7958 813f af38 813f
000000c0: c15e 813f 5f15 813f 1700 813f 7972 813f
000000d0: 3212 813f 5d75 813f ed3c 813f 3b5b 823f
000000e0: 2d2a 813f e54c 803f ed56 803f 0648 813f
000000f0: 14dd 803f 911a 813f 4171 813f deaf 813f

bn2.bias f4 [64]
0.016187998 0.011050895 0.0033776644 0.011684086 0.0038170519 0.013061134 0.010593299 0.005191295
0.0038971938 0.00874113 0.011009485 0.002521004 0.0069013746 0.011482408 0.011260787 0.01300213
0.008555517 0.009258111 0.0094878115 0.009483684 0.0115460055 0.0059823496 0.0062953113 0.008541959
0.008587941 0.0060151624 0.010396094 0.011094253 0.0071297307 0.0056716646 0.0014622528 0.00935129
0.004598542 0.004891327 0.007667527 0.008693398 0.014033596 0.008553538 0.010833165 0.0020725664
0.0046156016 0.0044774204 0.006209921 0.012731973 0.012579407 0.005065905 0.01161237 0.004674532
0.0065466114 0.008936291 0.014156419 0.007006704 0.011364661 0.007521272 0.010267684 0.010280892
0.003989899 0.007954778 0.006975509 0.0140055865 0.0057527055 0.0050473744 0.013640444 0.010885861
00000000: b19c 843c d00e 353c ce5b 5d3b 9c6e 3f3c
00000010: 8127 7a3b 5efe 553c 848f 2d3c bd1b aa3b
00000020: 1068 7f3b f536 0f3c 2161 343c 6e37 253b
00000030: ed24 e23b b620 3c3c 2a7f 383c e306 553c
00000040: 702c 0c3c 55af 173c c472 1b3c 7461 1b3c
00000050: 752b 3d3c 9607 c43b e648 ce3b 93f3 0b3c
00000060: 6fb4 0c3c d71a c53b 6154 2a3c abc4 353c
00000070: 84a0 e93b 5fd9 b93b 10a9 bf3a 2736 193c
00000080: 5eaf 963b 6d47 a03b e13f fb3b c16e 0e3c
00000090: 2bed 653c 2324 0c3c 967d 313c e5d3 073b
000000a0: 793e 973b 53b7 923b 987c cb3b c499 503c
000000b0: db19 4e3c e4ff a53b cf41 3e3c d12c 993b
000000c0: f584 d63b 8569 123c 53f0 673c 7e98 e53b
000000d0: d832 3a3c 0175 f63b ca39 283c 3071 283c
000000e0: b3bd 823b c254 023c d092 e43b b077 653c
000000f0: 3181 bc3b 7264 a53b 2b7c 5f3c 9c5a 323c

bn2.running_mean f4 [64]
0.02479548 -0.083570234 -0.057485435 0.09293587 -0.01924139 -0.017875234 0.042307295 -0.008208294
-0.533548 0.08212522 -0.0476269 -0.078519456 -0.072822705 0.03793854 0.008068307 -0.040777706
0.0255182 -0.011906506 -0.079482995 0.011313103 -0.035471693 -0.027580576 -0.15887953 -0.15732598
-0.08508296 -0.0906027 0.0912319 -0.066913694 0.009225841 -0.31077033 -0.026475715 -0.009628298
-0.21944176 -0.36280024 -0.15285286 -0.07524091 0.104433335 0.0002433469 0.06169242 0.054495394
-0.0575094 0.008466616 -0.27842456 0.1053676 -0.095749654 -0.24825208 0.10011639 -0.23995931
-0.35143787 0.03922796 -0.05276124 -0.2199358 -0.04773966 0.07742061 -0.061475705 -0.032256376
-0.18027355 0.17718752 0.11097595 0.06492472 -0.28274944 -0.31021658 0.04416517 0.030292725
00000000: e41f cb3c df26 abbd d975 6bbd 2955 be3d
00000010: 1fa0 9dbc 156f 92bc 6a4a 2d3d 157c 06bc
00000020: 9a96 08bf 4431 a83d 6d14 43bd cfce a0bd
00000030: 1224 95bd 7165 1b3d ef30 043c 8606 27bd
00000040: 8b0b d13c 8113 43bc fbc7 a2bd 985a 393c
00000050: c44a 11bd a9f0 e1bc 51b1 22be 101a 21be
00000060: fa3f aebd e98d b9bd cad7 ba3d 0c0a 89bd
00000070: fb27 173c 4a1d 9fbe 99e3 d8bc 02c0 1dbc
00000080: 57b5 60be f4c0 b9be 7685 1cbe e817 9abd
00000090: 25e1 d53d f02a 7f39 31b1 7c3d 9036 5f3d
000000a0: fa8e 6bbd 90b7 0a3c aa8d 8ebe f8ca d73d
000000b0: 6518 c4bd cb35 7ebe d209 cd3d e5b7 75be
000000c0: aaef b3be 7fad 203d 2c1c 58bd da36 61be
000000d0: a98a 43bd b28e 9e3d f3cd 7bbd 431f 04bd
000000e0: a199 38be a570 353e 5c47 e33d 40f7 843d
000000f0: 89c4 90be b5d4 9ebe 8ae6 343d 7328 f83c

bn2.running_var f4 [64]
0.29287168 0.1676556 0.11346302 0.090708755 0.11162939 0.1821504 0.10177635 0.06436065
0.7600611 0.11963248 0.05236189 0.2127476 0.18503183 0.07121673 0.12240392 0.08730678
0.057533473 0.14478679 0.10355058 0.080124624 0.09909368 0.10350143 0.21443535 0.2440395
0.1199811 0.22406821 0.07465345 0.13286422 0.10892974 0.24237758 0.11438249 0.116722286
0.27240592 0.564251 0.18665402 0.11133555 0.19973269 0.12352221 0.11278802 0.095590144
0.18389091 0.112302214 0.21928626 0.069725454 0.09363382 0.48236722 0.09012667 0.17406277
0.3137595 0.16545598 0.32840735 0.096559696 0.18584254 0.10359008 0.09214456 0.117640994
0.16633905 0.12690634 0.11200427 0.23717105 0.41111666 0.2964087 0.13757023 0.12964018
00000000: 47f3 953e e9ad 2b3e 4d5f e83d 83c5 b93d
00000010: f39d e43d a285 3a3e 1e70 d03d 84cf 833d
00000020: 5d93 423f e001 f53d 6c79 563d 82da 593e
00000030: fc78 3d3e 14da 913d e8ae fa3d e6cd b23d
00000040: 38a8 6b3d fd42 143e 5412 d43d 6118 a43d
00000050: a1f1 ca3d 8ff8 d33d f194 5b3e 7ee5 793e
00000060: a7b8 f53d 2372 653e e8e3 983d 8f0d 083e
00000070: 8e16 df3d d431 783e 5e41 ea3d 180c ef3d
00000080: ca78 8b3e c172 103f 3b22 3f3e e503 e43d
00000090: ba86 4c3e 36f9 fc3d 68fd e63d c4c4 c33d
000000a0: e64d 3c3e b4fe e53d 948c 603e 38cc 8e3d
000000b0: 17c3 bf3d d6f8 f63e 5594 b83d 833d 323e
000000c0: 16a5 a03e 4b6d 293e 0225 a83e 17c1 c53d
000000d0: 824d 3e3e 0927 d43d 49b6 bc3d c3ed f03d
000000e0: c954 2a3e bcf3 013e 7f62 e53d f8dc 723e
000000f0: e27d d23e e2c2 973e 36df 0c3e 65c0 043e

conv3.weight f4 [128, 64, 3]
0.059734397 -0.06762435 -0.052955605 0.047348935 0.01866763 0.04791258 -0.01824949 0.07196126
0.02820425 -0.02793372 -0.03486496 0.018960852 -0.0017772468 -0.034977205 -0.03868283 0.024316793
0.03562439 0.068733305 -0.030454516 -0.04260633 -0.045496408 -0.048887994 0.071289286 -0.035293862
-0.033948675 0.05294617 0.05738994 -0.066048324 -0.007955154 0.021686232 0.011036885 -0.041029565
-0.05815737 -0.052075732 0.024038997 -0.03359931 -0.065621264 0.07115122 0.033069782 -0.021531202
0.011516065 -0.02564683 -0.04757457 -0.066678055 0.047043838 -0.06664511 -0.054434977 0.06022062
-0.04545108 -0.02423059 0.00033327893 -0.07126805 -0.06552614 -0.05853994 -0.01087912 -0.02611898
0.053598005 0.046423867 0.07021345 -0.06244747 -0.03438669 0.049162235 0.025018375 -0.047010615
0.05410869 -0.036859546 0.068526946 -0.05760014 0.037407182 -0.0041027577 -0.062467612 0.03734199
-0.026486691 0.001255885 -0.022033077 -0.016132614 -0.018470531 0.032399274 -0.005828859 0.04930879
0.02915196 -0.00042634824 0.028933119 -0.024277167 -0.0556129 -0.047537163 -0.049420282 -0.058258492
0.011547184 -0.006421369 -0.06489342 0.03744755 0.044721667 0.061305862 0.002959368 -0.005283692
0.042447336 -0.06258576 0.0044613043 0.04722528 0.049944833 0.008503951 -0.0059849117 0.025788128
0.015341689 -0.0024230797 0.05716414 0.0616057 -0.04099787 0.064948596 -0.018840434 0.015526408
0.06427622 -0.03410238 0.033685505 -0.009839872 -0.040838566 -0.0043936744 0.06169139 0.040273596
-0.037321348 0.06532557 0.014681876 0.06159893 0.06864487 -0.021010658 0.05761666 -0.010697541
0.0113923345 0.0023477674 0.0009933673 -0.0055998247 -0.066149354 0.0062792613 0.06622165 0.023671055
-0.06668385 0.013472749 -0.01168998 0.021273475 -0.0662766 0.012064278 -0.051577393 0.010268827
0.043436322 0.05052426 -0.011926602 0.064107835 -0.0042449255 -0.041536268 0.03373202 0.003125702
-0.056940105 0.045885522 0.06955057 0.03951763 -0.011491882 -0.0605475 0.061828177 -0.0384362
0.01087068 -0.06529959 0.044519715 0.014488941 0.06870321 0.035022665 -0.068924345 0.057028823
-0.058320135 -0.034492448 0.037262235 -0.03927776 0.01892417 0.0074330866 0.005112454 -0.03919793
0.050507706 0.010373821 0.026794048 0.008403165 -0.0359019 -0.027125753 0.048039623 -0.06304622
-0.02494277 -0.06606237 -0.043144993 0.009698556 -0.016441004 0.024049373 0.05499077 0.015179794
0.06854114 -0.00019066388 0.069624595 0.011643375 -0.0018523699 0.020170452 -0.056902688 0.05885127
0.0660337 -0.06346993 -0.042951964 0.057037976 0.018139988 -0.026090669 -0.035957657 -0.016535673
-0.013583464 0.06657487 -0.04388005 0.0101495525 0.020455716 -0.035797648 -0.0044997693 -0.013046952
0.055064186 0.05163562 -0.0034817536 -0.036983475 -0.041432522 -0.030725593 0.06260709 0.058666445
0.014350223 -0.06724152 0.023047222 -0.013412965 0.04035035 0.037510604 0.060544256 0.005255181
0.0055230237 0.00052302226 0.049858958 0.054494392 0.034003932 -0.014430732 -0.020951837 0.06687783
-0.037332267 0.012413533 0.022690352 0.037371453 -0.043772228 -0.013932676 -0.0021080652 -0.0065828077
-0.061938938 0.031141024 -0.055180065 -0.018224377 0.022121398 0.0567471 -0.012551786 -0.03995801
00000000: 0eac 743d a37e 8abd fae7 58bd f5f0 413d
00000010: dcec 983c fb3f 443d f47f 95bc 6d60 933d
00000020: 990c e73c 42d5 e4bc 8fce 0ebd ca53 9b3c
00000030: 82f2 e8ba 4244 0fbd e371 1ebd 0334 c73c
00000040: e1ea 113d 0cc4 8c3d c07b f9bc fa83 2ebd
00000050: 715a 3abd c73e 48bd 1e00 923d 4c90 10bd
00000060: c40d 0bbd 15de 583d b711 6b3d 5844 87bd
00000070: 5656 02bc 53a7 b13c 0dd4 343c 9e0e 28bd
00000080: 6c36 6ebd 5d4d 55bd 6eed c43c 6e9f 09bd
00000090: 7164 86bd bbb7 913d 2e74 073d 3462 b0bc
000000a0: e1ad 3c3c 4d19 d2bc 8ddd 42bd 818e 88bd
000000b0: 0ab1 403d 3b7d 88bd 36f7 5ebd e6a9 763d
000000c0: e92a 3abd 3b7f c6bc f1bb ae39 fcf4 91bd
000000d0: 9232 86bd 93c7 6fbd 563e 32bc 79f7 d5bc
000000e0: 9589 5b3d f426 3e3d 12cc 8f3d ebc8 7fbd
000000f0: 0fd9 0cbd 575e 493d 56f3 cc3c 348e 40bd
00000100: 13a1 5d3d 09fa 16bd db57 8c3d 20ee 6bbd
00000110: 4638 193d 6d70 86bb 0ade 7fbd eaf3 183d
00000120: 9efa d8bc 829c a43a b67e b4bc 8b28 84bc
00000130: 834f 97bc 1ab5 043d 0300 bfbb 04f8 493d
00000140: 17d0 ee3c 7e87 dfb9 2605 ed3c e9e0 c6bc
00000150: 5aca 63bd 54b6 42bd ec6c 4abd 75a0 6ebd
00000160: 6630 3d3c 596a d2bb d7e6 84bd 9a62 193d
00000170: 112e 373d db1b 7b3d f5f1 413b d222 adbb
00000180: 42dd 2d3d f72c 80bd 2230 923b 4c6f 413d
00000190: f492 4c3d 2854 0b3c 141d c4bb a041 d33c
000001a0: b55b 7b3c 88cc 1ebb f224 6a3d 4256 7c3d
000001b0: 62ed 27bd c503 853d 4157 9abc 7a62 7e3c
000001c0: 40a3 833d f0ae 0bbd d0f9 093d 6a37 21bc
000001d0: 5746 27bd d0f8 8fbb 1cb0 7c3d edf5 243d
000001e0: 45de 18bd 6ac9 853d 408c 703c 294f 7c3d
000001f0: ae95 8c3d 8b1e acbc 72ff 6b3d bd44 2fbc
00000200: eaa6 3a3c 00dd 193b e033 823a bc7e b7bb
00000210: 5079 87bd 43c2 cd3b 379f 873d cde9 c13c
00000220: 8b91 88bd cebc 5c3c 5487 3fbc b645 ae3c
00000230: 07bc 87bd 40a9 453c d142 53bd 953e 283c
00000240: 49ea 313d 87f2 4e3d cb67 43bc f84a 833d
00000250: 0419 8bbb ef21 2abd 962a 0a3d 94d8 4c3b
00000260: 073a 69bd 75f2 3b3d 8770 8e3d 3ddd 213d
00000270: 7248 3cbc a800 78bd 8b3f 7d3d 476f 1dbd
00000280: f01a 323c cbbb 85bd 4e5a 363d 0663 6d3c
00000290: 45b4 8c3d ed73 0f3d 3528 8dbd 0e97 693d
000002a0: 18e1 6ebd f447 0dbd 49a0 183d b7e1 20bd
000002b0: dc06 9b3c 4091 f33b 5f86 a73b 028e 20bd
000002c0: 2be1 4e3d f5f6 293c 317f db3c 6ead 093c
000002d0: df0d 13bd d436 debc 32c5 443d 601e 81bd
000002e0: c854 ccbc b54b 87bd ceb8 30bd b1e6 1e3c
000002f0: 49af 86bc 3103 c53c 003e 613d acb4 783c
00000300: 4c5f 8c3d f2ec 47b9 5797 8e3d dbc3 3e3c
00000310: 38cb f2ba 813c a53c cb12 69bd 070e 713d
00000320: ad3c 873d 86fc 81bd 66ee 2fbd a7a0 693d
00000330: 509a 943c 19bc d5bc 5648 13bd d275 87bc
00000340: 2d8d 5ebc 6858 883d 91bb 33bd 4f4a 263c
00000350: bf92 a73c 8ea0 12bd cd72 93bb e2c2 55bc
00000360: fc8a 613d df7f 533d 222e 64bb fc7b 17bd
00000370: 26b5 29bd 3db4 fbbc 2538 803d 3a4c 703d
00000380: 331d 6b3c ecb5 89bd 87cd bc3c 0ec2 5bbc
00000390: 6946 253d b8a4 193d 41fd 773d a733 ac3b
000003a0: 7bfa b43b 6e1b 093a e838 4c3d 8335 5f3d
000003b0: b547 0b3d e06e 6cbc 30a3 abbc 3ef7 883d
000003c0: b8e9 18bd 2262 4b3c 1ee1 b93c cf12 193d
000003d0: 824a 33bd e145 64bc 7727 0abb 98b4 d7bb
000003e0: afb3 7dbd 761b ff3c 7e04 62bd 4a4b 95bc
000003f0: ef37 b53c a66f 683d 02a6 4dbc 03ab 23bd

conv3.bias f4 [128]
-0.026101 0.023909872 -0.017719068 -0.05547314 -0.028862333 -0.043649845 -0.019730555 -0.03374104
0.05293643 -0.005607748 0.0063972715 0.042061966 0.045659777 0.025202269 -0.021704143 -0.021967642
0.004350891 -0.056513164 0.016781475 -0.054686088 0.028867442 -0.04994412 -0.010000519 -0.011645466
0.021223595 -0.046670083 0.07021469 -0.054054793 -0.07213908 0.05274075 -0.043486018 0.06501568
0.047990706 -0.03506902 -0.063575566 -0.06766226 -0.01015382 0.04145452 0.05721557 -0.040940933
-0.06145333 -0.030077102 0.06916495 -0.060143236 -0.051767275 0.039671097 -0.024787491 -0.040090922
-0.070997946 -0.02399649 0.012543046 -0.00849965 0.025334602 -0.037444383 0.010253737 -0.031016003
-0.048217986 -0.013355204 0.03014019 -0.06612065 0.032741863 0.012114409 -0.0063141645 -0.035789035
0.016127419 0.043708235 0.030899344 0.015675029 -0.007329573 -0.017890796 -0.004657311 -0.05420829
1.6113774e-05 0.0034099773 -0.006135588 0.06408933 0.0453446 0.020531967 -0.02795239 0.04738326
0.043918006 -0.0042443145 -0.0071647703 0.041655704 0.01130509 0.067965455 0.06410084 0.041960843
-0.032167833 0.025333235 0.018425899 0.02575166 0.071391344 -0.06301383 -0.014388447 -0.05309621
-0.003861464 0.04141115 -0.040196054 0.06331698 -0.046016473 0.06894633 0.05863026 -0.01543986
-0.015572728 -0.014868505 -0.041164324 -0.0071258238 -0.05089799 -0.04427233 -0.023073805 0.043494627
-0.068562865 0.04819972 -0.027891979 -0.008059605 0.036258504 -0.045471597 -0.06186186 0.0072813006
0.04888278 0.01690937 -0.04202559 0.05929589 0.06670497 -0.006456857 -0.0700166 0.07054922
00000000: c4d1 d5bc a3de c33c 9427 91bc ce37 63bd
00000010: b370 ecbc 2eca 32bd f9a1 a1bc 0b34 0abd
00000020: dfd3 583d 33c1 b7bb 34a0 d13b 2b49 2c3d
00000030: bf05 3b3d fd74 ce3c e3cc b1bc 7cf5 b3bc
00000040: eb91 8e3b 597a 67bd 4e79 893c 85fe 5fbd
00000050: 6a7b ec3c 3592 4cbd 38d9 23bc a0cc 3ebc
00000060: 1bdd ad3c 2129 3fbd b8cc 8f3d 8f68 5dbd
00000070: a7bd 93bd af06 583d 651e 32bd f126 853d
00000080: e791 443d 88a4 0fbd e833 82bd 8392 8abd
00000090: 355c 26bc 37cc 293d e05a 6a3d aeb1 27bd
000000a0: 7db6 7bbd 4164 f6bc 5aa6 8d3d c158 76bd
000000b0: ec09 54bd 297e 223d 230f cbbc 6136 24bd
000000c0: 5f67 91bd 4994 c4bc 5981 4d3c 1e42 0bbc
000000d0: 838a cf3c 485f 19bd 4aff 273c 4615 febc
000000e0: 3980 45bd c9cf 5abc 8fe8 f63c 436a 87bd
000000f0: 551c 063d 847b 463c 0de7 cebb 8697 12bd
00000100: a61d 843c 6807 333d 9f20 fd3c eb68 803c
00000110: ea2c f0bb b88f 92bc 5b9c 98bb 8309 5ebd
00000120: 112c 8737 ed79 5f3b 0b0d c9bb 4441 833d
00000130: 42bb 393d a832 a83c 69fc e4bc f314 423d
00000140: 5ee3 333d e413 8bbb 73c6 eabb 2c9f 2a3d
00000150: fc38 393c 7931 8b3d 4d47 833d 22df 2b3d
00000160: 6bc2 03bd a587 cf3c e9f1 963c 25f5 d23c
00000170: a035 923d 650d 81bd 85bd 6bbc 697b 59bd
00000180: 9e10 7dbb bd9e 293d 9ea4 24bd 55ac 813d
00000190: c57b 3cbd bc33 8d3d 4926 703d 77f7 7cbc
000001a0: c124 7fbc 089b 73bc ec9b 28bd be7f e9bb
000001b0: 697a 50bd e756 35bd 4705 bdbc 6c27 323d
000001c0: b06a 8cbd 126d 453d b87d e4bc 6f0c 04bc
000001d0: cc83 143d 6d40 3abd dd62 7dbd fa97 ee3b
000001e0: 4f39 483d 8585 8a3c 0623 2cbd 3fe0 723d
000001f0: 9e9c 883d 0b94 d3bb dd64 8fbd 1c7c 903d

bn3.weight f4 [128]
1.0 1.0 1.0 1.0 1.0 1.0 1.0 1.0
1.0 1.0 1.0 1.0 1.0 1.0 1.0 1.0
1.0 1.0 1.0 1.0 1.0 1.0 1.0 1.0
1.0 1.0 1.0 1.0 1.0 1.0 1.0 1.0
1.0 1.0 1.0 1.0 1.0 1.0 1.0 1.0
1.0 1.0 1.0 1.0 1.0 1.0 1.0 1.0
1.0 1.0 1.0 1.0 1.0 1.0 1.0 1.0
1.0 1.0 1.0 1.0 1.0 1.0 1.0 1.0
1.0 1.0 1.0 1.0 1.0 1.0 1.0 1.0
1.0 1.0 1.0 1.0 1.0 1.0 1.0 1.0
1.0 1.0 1.0 1.0 1.0 1.0 1.0 1.0
1.0 1.0 1.0 1.0 1.0 1.0 1.0 1.0
1.0 1.0 1.0 1.0 1.0 1.0 1.0 1.0
1.0 1.0 1.0 1.0 1.0 1.0 1.0 1.0
1.0 1.0 1.0 1.0 1.0 1.0 1.0 1.0
1.0 1.0 1.0 1.0 1.0 1.0 1.0 1.0
00000000: 0000 803f 0000 803f 0000 803f 0000 803f
00000010: 0000 803f 0000 803f 0000 803f 0000 803f
00000020: 0000 803f 0000 803f 0000 803f 0000 803f
00000030: 0000 803f 0000 803f 0000 803f 0000 803f
00000040: 0000 803f 0000 803f 0000 803f 0000 803f
00000050: 0000 803f 0000 803f 0000 803f 0000 803f
00000060: 0000 803f 0000 803f 0000 803f 0000 803f
00000070: 0000 803f 0000 803f 0000 803f 0000 803f
00000080: 0000 803f 0000 803f 0000 803f 0000 803f
00000090: 0000 803f 0000 803f 0000 803f 0000 803f
000000a0: 0000 803f 0000 803f 0000 803f 0000 803f
000000b0: 0000 803f 0000 803f 0000 803f 0000 803f
000000c0: 0000 803f 0000 803f 0000 803f 0000 803f
000000d0: 0000 803f 0000 803f 0000 803f 0000 803f
000000e0: 0000 803f 0000 803f 0000 803f 0000 803f
000000f0: 0000 803f 0000 803f 0000 803f 0000 803f
00000100: 0000 803f 0000 803f 0000 803f 0000 803f
00000110: 0000 803f 0000 803f 0000 803f 0000 803f
00000120: 0000 803f 0000 803f 0000 803f 0000 803f
00000130: 0000 803f 0000 803f 0000 803f 0000 803f
00000140: 0000 803f 0000 803f 0000 803f 0000 803f
00000150: 0000 803f 0000 803f 0000 803f 0000 803f
00000160: 0000 803f 0000 803f 0000 803f 0000 803f
00000170: 0000 803f 0000 803f 0000 803f 0000 803f
00000180: 0000 803f 0000 803f 0000 803f 0000 803f
00000190: 0000 803f 0000 803f 0000 803f 0000 803f
000001a0: 0000 803f 0000 803f 0000 803f 0000 803f
000001b0: 0000 803f 0000 803f 0000 803f 0000 803f
000001c0: 0000 803f 0000 803f 0000 803f 0000 803f
000001d0: 0000 803f 0000 803f 0000 803f 0000 803f
000001e0: 0000 803f 0000 803f 0000 803f 0000 803f
000001f0: 0000 803f 0000 803f 0000 803f 0000 803f

bn3.bias f4 [128]
0.0 0.0 0.0 0.0 0.0 0.0 0.0 0.0
0.0 0.0 0.0 0.0 0.0 0.0 0.0 0.0
0.0 0.0 0.0 0.0 0.0 0.0 0.0 0.0
0.0 0.0 0.0 0.0 0.0 0.0 0.0 0.0
0.0 0.0 0.0 0.0 0.0 0.0 0.0 0.0
0.0 0.0 0.0 0.0 0.0 0.0 0.0 0.0
0.0 0.0 0.0 0.0 0.0 0.0 0.0 0.0
0.0 0.0 0.0 0.0 0.0 0.0 0.0 0.0
0.0 0.0 0.0 0.0 0.0 0.0 0.0 0.0
0.0 0.0 0.0 0.0 0.0 0.0 0.0 0.0
0.0 0.0 0.0 0.0 0.0 0.0 0.0 0.0
0.0 0.0 0.0 0.0 0.0 0.0 0.0 0.0
0.0 0.0 0.0 0.0 0.0 0.0 0.0 0.0
0.0 0.0 0.0 0.0 0.0 0.0 0.0 0.0
0.0 0.0 0.0 0.0 0.0 0.0 0.0 0.0
0.0 0.0 0.0 0.0 0.0 0.0 0.0 0.0
00000000: 0000 0000 0000 0000 0000 0000 0000 0000
00000010: 0000 0000 0000 0000 0000 0000 0000 0000
00000020: 0000 0000 0000 0000 0000 0000 0000 0000
00000030: 0000 0000 0000 0000 0000 0000 0000 0000
00000040: 0000 0000 0000 0000 0000 0000 0000 0000
00000050: 0000 0000 0000 0000 0000 0000 0000 0000
00000060: 0000 0000 0000 0000 0000 0000 0000 0000
00000070: 0000 0000 0000 0000 0000 0000 0000 0000
00000080: 0000 0000 0000 0000 0000 0000 0000 0000
00000090: 0000 0000 0000 0000 0000 0000 0000 0000
000000a0: 0000 0000 0000 0000 0000 0000 0000 0000
000000b0: 0000 0000 0000 0000 0000 0000 0000 0000
000000c0: 0000 0000 0000 0000 0000 0000 0000 0000
000000d0: 0000 0000 0000 0000 0000 0000 0000 0000
000000e0: 0000 0000 0000 0000 0000 0000 0000 0000
000000f0: 0000 0000 0000 0000 0000 0000 0000 0000
00000100: 0000 0000 0000 0000 0000 0000 0000 0000
00000110: 0000 0000 0000 0000 0000 0000 0000 0000
00000120: 0000 0000 0000 0000 0000 0000 0000 0000
00000130: 0000 0000 0000 0000 0000 0000 0000 0000
00000140: 0000 0000 0000 0000 0000 0000 0000 0000
00000150: 0000 0000 0000 0000 0000 0000 0000 0000
00000160: 0000 0000 0000 0000 0000 0000 0000 0000
00000170: 0000 0000 0000 0000 0000 0000 0000 0000
00000180: 0000 0000 0000 0000 0000 0000 0000 0000
00000190: 0000 0000 0000 0000 0000 0000 0000 0000
000001a0: 0000 0000 0000 0000 0000 0000 0000 0000
000001b0: 0000 0000 0000 0000 0000 0000 0000 0000
000001c0: 0000 0000 0000 0000 0000 0000 0000 0000
000001d0: 0000 0000 0000 0000 0000 0000 0000 0000
000001e0: 0000 0000 0000 0000 0000 0000 0000 0000
000001f0: 0000 0000 0000 0000 0000 0000 0000 0000

bn3.running_mean f4 [128]
0.0 0.0 0.0 0.0 0.0 0.0 0.0 0.0
0.0 0.0 0.0 0.0 0.0 0.0 0.0 0.0
0.0 0.0 0.0 0.0 0.0 0.0 0.0 0.0
0.0 0.0 0.0 0.0 0.0 0.0 0.0 0.0
0.0 0.0 0.0 0.0 0.0 0.0 0.0 0.0
0.0 0.0 0.0 0.0 0.0 0.0 0.0 0.0
0.0 0.0 0.0 0.0 0.0 0.0 0.0 0.0
0.0 0.0 0.0 0.0 0.0 0.0 0.0 0.0
0.0 0.0 0.0 0.0 0.0 0.0 0.0 0.0
0.0 0.0 0.0 0.0 0.0 0.0 0.0 0.0
0.0 0.0 0.0 0.0 0.0 0.0 0.0 0.0
0.0 0.0 0.0 0.0 0.0 0.0 0.0 0.0
0.0 0.0 0.0 0.0 0.0 0.0 0.0 0.0
0.0 0.0 0.0 0.0 0.0 0.0 0.0 0.0
0.0 0.0 0.0 0.0 0.0 0.0 0.0 0.0
0.0 0.0 0.0 0.0 0.0 0.0 0.0 0.0
00000000: 0000 0000 0000 0000 0000 0000 0000 0000
00000010: 0000 0000 0000 0000 0000 0000 0000 0000
00000020: 0000 0000 0000 0000 0000 0000 0000 0000
00000030: 0000 0000 0000 0000 0000 0000 0000 0000
00000040: 0000 0000 0000 0000 0000 0000 0000 0000
00000050: 0000 0000 0000 0000 0000 0000 0000 0000
00000060: 0000 0000 0000 0000 0000 0000 0000 0000
00000070: 0000 0000 0000 0000 0000 0000 0000 0000
00000080: 0000 0000 0000 0000 0000 0000 0000 0000
00000090: 0000 0000 0000 0000 0000 0000 0000 0000
000000a0: 0000 0000 0000 0000 0000 0000 0000 0000
000000b0: 0000 0000 0000 0000 0000 0000 0000 0000
000000c0: 0000 0000 0000 0000 0000 0000 0000 0000
000000d0: 0000 0000 0000 0000 0000 0000 0000 0000
000000e0: 0000 0000 0000 0000 0000 0000 0000 0000
000000f0: 0000 0000 0000 0000 0000 0000 0000 0000
00000100: 0000 0000 0000 0000 0000 0000 0000 0000
00000110: 0000 0000 0000 0000 0000 0000 0000 0000
00000120: 0000 0000 0000 0000 0000 0000 0000 0000
00000130: 0000 0000 0000 0000 0000 0000 0000 0000
00000140: 0000 0000 0000 0000 0000 0000 0000 0000
00000150: 0000 0000 0000 0000 0000 0000 0000 0000
00000160: 0000 0000 0000 0000 0000 0000 0000 0000
00000170: 0000 0000 0000 0000 0000 0000 0000 0000
00000180: 0000 0000 0000 0000 0000 0000 0000 0000
00000190: 0000 0000 0000 0000 0000 0000 0000 0000
000001a0: 0000 0000 0000 0000 0000 0000 0000 0000
000001b0: 0000 0000 0000 0000 0000 0000 0000 0000
000001c0: 0000 0000 0000 0000 0000 0000 0000 0000
000001d0: 0000 0000 0000 0000 0000 0000 0000 0000
000001e0: 0000 0000 0000 0000 0000 0000 0000 0000
000001f0: 0000 0000 0000 0000 0000 0000 0000 0000

bn3.running_var f4 [128]
1.0 1.0 1.0 1.0 1.0 1.0 1.0 1.0
1.0 1.0 1.0 1.0 1.0 1.0 1.0 1.0
1.0 1.0 1.0 1.0 1.0 1.0 1.0 1.0
1.0 1.0 1.0 1.0 1.0 1.0 1.0 1.0
1.0 1.0 1.0 1.0 1.0 1.0 1.0 1.0
1.0 1.0 1.0 1.0 1.0 1.0 1.0 1.0
1.0 1.0 1.0 1.0 1.0 1.0 1.0 1.0
1.0 1.0 1.0 1.0 1.0 1.0 1.0 1.0
1.0 1.0 1.0 1.0 1.0 1.0 1.0 1.0
1.0 1.0 1.0 1.0 1.0 1.0 1.0 1.0
1.0 1.0 1.0 1.0 1.0 1.0 1.0 1.0
1.0 1.0 1.0 1.0 1.0 1.0 1.0 1.0
1.0 1.0 1.0 1.0 1.0 1.0 1.0 1.0
1.0 1.0 1.0 1.0 1.0 1.0 1.0 1.0
1.0 1.0 1.0 1.0 1.0 1.0 1.0 1.0
1.0 1.0 1.0 1.0 1.0 1.0 1.0 1.0
00000000: 0000 803f 0000 803f 0000 803f 0000 803f
00000010: 0000 803f 0000 803f 0000 803f 0000 803f
00000020: 0000 803f 0000 803f 0000 803f 0000 803f
00000030: 0000 803f 0000 803f 0000 803f 0000 803f
00000040: 0000 803f 0000 803f 0000 803f 0000 803f
00000050: 0000 803f 0000 803f 0000 803f 0000 803f
00000060: 0000 803f 0000 803f 0000 803f 0000 803f
00000070: 0000 803f 0000 803f 0000 803f 0000 803f
00000080: 0000 803f 0000 803f 0000 803f 0000 803f
00000090: 0000 803f 0000 803f 0000 803f 0000 803f
000000a0: 0000 803f 0000 803f 0000 803f 0000 803f
000000b0: 0000 803f 0000 803f 0000 803f 0000 803f
000000c0: 0000 803f 0000 803f 0000 803f 0000 803f
000000d0: 0000 803f 0000 803f 0000 803f 0000 803f
000000e0: 0000 803f 0000 803f 0000 803f 0000 803f
000000f0: 0000 803f 0000 803f 0000 803f 0000 803f
00000100: 0000 803f 0000 803f 0000 803f 0000 803f
00000110: 0000 803f 0000 803f 0000 803f 0000 803f
00000120: 0000 803f 0000 803f 0000 803f 0000 803f
00000130: 0000 803f 0000 803f 0000 803f 0000 803f
00000140: 0000 803f 0000 803f 0000 803f 0000 803f
00000150: 0000 803f 0000 803f 0000 803f 0000 803f
00000160: 0000 803f 0000 803f 0000 803f 0000 803f
00000170: 0000 803f 0000 803f 0000 803f 0000 803f
00000180: 0000 803f 0000 803f 0000 803f 0000 803f
00000190: 0000 803f 0000 803f 0000 803f 0000 803f
000001a0: 0000 803f 0000 803f 0000 803f 0000 803f
000001b0: 0000 803f 0000 803f 0000 803f 0000 803f
000001c0: 0000 803f 0000 803f 0000 803f 0000 803f
000001d0: 0000 803f 0000 803f 0000 803f 0000 803f
000001e0: 0000 803f 0000 803f 0000 803f 0000 803f
000001f0: 0000 803f 0000 803f 0000 803f 0000 803f

conv4.weight f4 [256, 128, 3]
0.04515711 0.027233366 0.04387612 -0.034458116 -0.047505837 -0.022565156 -0.02790356 0.024799755
-0.04338523 0.032256056 -0.045984466 -0.02128688 -0.008151642 -0.039285313 0.049255192 -0.043843046
-0.018853458 -0.015939279 -0.0007954559 -0.0031555677 0.047265198 -0.007041499 0.009449189 0.04751107
-0.020791622 -0.034495953 0.010078106 0.0025808227 0.002294241 0.0111620845 -0.0019952857 -0.021529717
-0.026215812 0.047484085 -0.004230932 0.044284157 0.036001213 -0.013757416 -0.050244547 -0.02388714
0.015676733 -0.010515726 0.04028297 -0.044939518 -0.04916082 -0.03978497 0.033230137 -0.02977629
0.0117816515 0.02298169 -0.01463313 -0.04859424 0.02399723 -0.0062265825 -0.02022593 -0.03447579
-0.04641689 0.0295032 -0.036578517 -0.015418865 0.023977345 0.029115805 -0.04977287 -0.041329395
0.03841412 -0.01263569 0.026232451 -0.020527871 0.041613538 -0.031104151 0.03735573 0.015042079
-0.045059457 -0.028639138 0.012890043 0.04155571 -0.031238478 -0.011833069 0.04459506 -0.0020723378
0.03598757 0.028476717 -0.0066120736 0.0055981576 0.0033347656 0.04780241 -0.03649301 -0.021381855
0.013848928 -0.039026503 -0.026483458 -0.035827566 -0.0034240086 0.03381608 0.01732781 0.023159277
-0.028244508 0.018584767 0.018129768 -0.038053084 0.043025292 0.022386372 0.03636327 0.022652969
0.04584321 0.02304522 -0.009990573 0.023475058 -0.036809225 -0.035392042 -0.018779874 0.0003239579
0.045227516 0.042588986 -0.011741544 -0.0013619153 0.03285191 -0.013761881 0.025100414 -0.0017714176
-0.00199326 0.038332976 -0.04848637 0.049475588 0.03536329 -0.032807518 -0.013366547 0.010694547
0.008026428 -0.039069034 0.0027912527 -0.008868397 -0.044534415 0.04160494 0.0046756873 -0.0070630345
-0.020046268 -0.03714198 -0.036657546 -0.024615794 -0.008281442 -0.018882725 -0.013210363 0.037317075
0.024340978 -0.026857164 0.02835673 0.014272112 -0.024303267 0.027522467 0.049569435 0.03631439
0.045565445 -0.023001662 -0.00087273907 0.044539116 0.02461925 -0.024496432 -0.0020767483 0.0011537361
0.03485252 0.02985165 -0.049757794 -0.009398174 0.041272797 0.021710947 -0.0058981166 0.0003225283
-0.039024014 0.01688556 0.0033587036 0.007264844 -0.018799163 -0.037409287 -0.0047097113 0.029151855
-0.050567143 0.0010044806 -0.0380571 0.0054957685 -0.035522968 0.020380447 0.0033104322 0.0085103605
0.041756444 0.00046818252 -0.03660168 -0.004541877 0.0038468335 0.0065097758 -0.045654904 0.012637503
0.0042254264 0.050373882 -0.040157262 -0.036495283 0.0010011469 0.010569053 -0.0070845997 -0.021338802
0.0047280407 -0.004732433 -0.016812121 0.023330737 -0.024417179 -0.049033526 -0.043528296 0.017838374
-0.03681458 -0.039597027 -0.016838804 0.035763144 0.033288576 0.041747488 -0.034804817 -0.035476763
0.025372578 0.045793064 -0.001955622 -0.048497476 0.0508396 0.037651565 0.03819902 0.019628244
0.019860901 -0.0033950761 0.029128319 0.017988987 -0.02938519 -0.019750196 -0.009947174 -0.0033805247
0.03666454 0.035773937 -0.008526463 -0.016992578 -0.0050435853 0.050534587 0.04888343 0.0052863364
-0.0016025188 0.030196438 -0.037262652 -0.021793243 0.042048026 0.05084724 0.0025795938 -0.04151699
0.035082307 0.023636986 0.00428887 0.048890524 -0.03876182 -0.003051834 0.030916613 -0.019339465
00000000: a9f6 383d 8218 df3c 72b7 333d f423 0dbd
00000010: 7b95 42bd 90da b8bc 0296 e4bc db28 cb3c
00000020: b6b4 31bd ed1e 043d 355a 3cbd d361 aebc
00000030: 778e 05bc a3e9 20bd d0bf 493d c494 33bd
00000040: 9172 9abc 1793 82bc 2486 50ba a4cd 4ebb
00000050: 2799 413d 60bc e6bb c5d0 1a3c f89a 423d
00000060: 3153 aabc a14b 0dbd a41e 253c 0523 293b
00000070: fa5a 163b 2de1 363c 57c3 02bb 175f b0bc
00000080: 8bc2 d6bc ac7e 423d a1a3 8abb 4e63 353d
00000090: 0276 133d c966 61bc 3acd 4dbd f7ae c3bc
000000a0: 7e6c 803c 274a 2cbc c1ff 243d 8012 38bd
000000b0: db5c 49bd 91f5 22bd 531c 083d 68ed f3bc
000000c0: d407 413c 1944 bc3c ccbf 6fbc c10a 47bd
000000d0: d795 c43c 5c08 ccbb d9b0 a5bc 7c36 0dbd
000000e0: a31f 3ebd b2b0 f13c 5bd3 15bd 689f 7cbc
000000f0: 236c c43c 4584 ee3c a3de 4bbd 0349 29bd
00000100: 2058 1d3d ed05 4fbc 70e5 d63c 112a a8bc
00000110: f572 2a3d 22ce febc 5202 193d 0d73 763c
00000120: 4490 38bd a09c eabc c230 533c 5236 2a3d
00000130: d6e7 ffbc 7ddf 41bc 4fa9 363d 0fd0 07bb
00000140: b467 133d 0148 e93c 18aa d8bb c070 b73b
00000150: 158c 5a3b 76cc 433d b279 15bd 0029 afbc
00000160: 9de6 623c 41da 1fbd d6f3 d8bc edbf 12bd
00000170: 5565 60bb bb82 0a3d 0df3 8d3c 86b8 bd3c
00000180: 0761 e7bc 153f 983c e184 943c 8ddd 1bbd
00000190: 4a3b 303d a063 b73c a7f1 143d b892 b93c
000001a0: 17c6 3b3d 54c9 bc3c 80af 23bc c44e c03c
000001b0: 45c5 16bd 3ff7 10bd 40d8 99bc e5d8 a939
000001c0: 7d40 393d ca71 2e3d 9b5f 40bc 4b82 b2ba
000001d0: b98f 063d 8379 61bc 629f cd3c e92e e8ba
000001e0: 5ba1 02bb 0a03 1d3d a599 46bd eaa6 4a3d
000001f0: 19d9 103d 2d61 06bd 5dff 5abc 2e38 2f3c
00000200: 4781 033c da06 20bd 73ed 363b c14c 11bc
00000210: b869 36bd f169 2a3d 8236 993b 0771 e7bb
00000220: 1238 a4bc 3022 18bd 3926 16bd 10a7 c9bc
00000230: e3ae 07bc f2af 9abc 4770 58bc cad9 183d
00000240: bb66 c73c 8e03 dcbc 5f4c e83c 94d5 693c
00000250: a517 c7bc cc76 e13c 5209 4b3d 66be 143d
00000260: d5a2 3a3d fb6d bcbc 87c8 64ba a66e 363d
00000270: 4fae c93c beac c8bc 0e1a 08bb f638 973a
00000280: 84c1 0e3d 738b f43c d4ce 4bbd ccfa 19bc
00000290: aa0d 293d 28db b13c fd44 c1bb 0419 a939
000002a0: a5d7 1fbd 9653 8a3c b21d 5c3b ee0d ee3b
000002b0: b400 9abc 7b3a 19bd ec53 9abb dfcf ee3c
000002c0: 7e1f 4fbd c7a8 833a c3e1 1bbd d915 b43b
000002d0: 8880 11bd e5f4 a63c d6f3 583b 0a6f 0b3c
000002e0: ce08 2b3d 6576 f539 a5eb 15bd 07d4 94bb
000002f0: 281b 7c3b f54f d53b a300 3bbd 880d 4f3c
00000300: 7275 8a3b d854 4e3d f17b 24bd 147c 15bd
00000310: ea38 833a d229 2d3c ee25 e8bb b6ce aebc
00000320: aeed 9a3b 8612 9bbb 93b9 89bc 1a20 bf3c
00000330: 8906 c8bc 61d7 48bd ba4a 32bd c821 923c
00000340: e3ca 16bd 7e30 22bd 88f1 89bc 607c 123d
00000350: 9a59 083d 6aff 2a3d 7f8f 0ebd 1550 11bd
00000360: 27da cf3c 8291 3b3d e529 00bb 4aa5 46bd
00000370: 2f3d 503d 8738 1a3d 9376 1c3d 69cb a03c
00000380: 54b3 a23c ed7f 5ebb 839e ee3c a45d 933c
00000390: 36b9 f0bc 2acb a1bc 79f9 22bc cb8b 5dbb
000003a0: 8f2d 163d b187 123d 94b2 0bbc 0534 8bbc
000003b0: a944 a5bb 5bfd 4e3d fe39 483d 0139 ad3b
000003c0: 9c0b d2ba 855e f73c b9a0 18bd be87 b2bc
000003d0: 8d3a 2c3d 3245 503d 670e 293b b80d 2abd
000003e0: 77b2 0f3d 5aa2 c13c a689 8c3b 6e41 483d
000003f0: b7c4 1ebd 4701 48bb d644 fd3c cc6d 9ebc
