train_data_pga80_snr5_update_100_label4_model.ckpt (torch, 666959 bytes, 28 tensors)

conv1.weight f4 [32, 3, 3]
0.30901852 -0.2780505 -0.29331332 -0.26143864 0.20981647 -0.25315404 0.13513543 -0.2566749
0.08681974 0.14238301 -0.24604182 -0.038445435 -0.22775695 0.29668224 -0.07561518 -0.24434339
-0.06384949 0.12599325 -0.24872568 0.24695465 0.052953873 -0.27389738 0.22115597 0.10381892
0.17854016 -0.035846327 -0.1739012 -0.17363161 0.12313811 0.23978809 0.11011754 -0.16504157
0.3295499 0.047544036 -0.20843652 0.18608017 0.179633 -0.063975096 -0.109386526 -0.20191081
0.20364553 0.32665095 -0.08544637 0.15860425 0.20065913 0.114689246 -0.29267338 0.21862237
-0.06515478 -0.3142568 -0.14040467 -0.062470682 0.2217006 -0.32275975 0.08767378 -0.2630579
0.23445019 -0.22808519 -0.24362542 -0.11395867 -0.11866423 -0.08895795 -0.2775999 -0.17792788
-0.07076913 0.16415139 0.07257478 0.250025 -0.14236969 -0.06498748 0.18549544 -0.11368619
-0.3113778 -0.3040305 -0.21688063 0.06254587 -0.2986436 -0.06750423 -0.3338475 -0.108375534
-0.12350409 -0.30900574 0.28754988 0.08664448 -0.1579939 0.32019806 0.27898058 0.028034098
-0.03725285 0.25619948 0.030956907 0.033700105 -0.035509128 0.10476979 0.18195656 0.29309928
-0.21814767 0.010403717 0.07601223 0.12685467 0.20138867 0.2049137 -0.3229756 0.11241085
0.0029719067 0.010390101 -0.28802088 0.25250953 0.11649038 -0.28336516 0.27655318 0.25795454
-0.29996824 -0.09740357 -0.32710403 -0.019205937 -0.03261229 -0.32306948 -0.20466891 -0.024427393
0.33199087 0.20084359 0.3161117 0.023706362 -0.2712593 0.171345 -0.0702696 0.05212236
0.3255521 -0.19757397 0.0061014793 -0.30507347 -0.113143034 -0.06173801 0.054345254 0.2672387
0.3224078 0.27535674 0.03258371 0.26007217 -0.121061794 -0.12421784 -0.11636245 -0.19909075
-0.08976166 -0.05509077 -0.17645739 0.076083556 0.1060175 -0.19944723 -0.3176312 -0.034164388
-0.006362483 0.067778975 0.18504411 -0.18406792 -0.08510703 -0.19221437 -0.08703124 -0.277539
0.3209103 -0.332903 0.13074851 0.027042614 0.007393115 -0.14481007 0.20143119 0.05028264
-0.060331006 0.31369942 -0.31571794 -0.05218555 -0.31278422 0.22017725 -0.1934662 0.03529695
-0.30019698 0.18622856 -0.068987764 0.08714507 0.33364785 0.10044534 0.2431492 0.16628528
-0.019292587 -0.028745152 -0.27603105 -0.26658404 0.15688065 0.08417045 0.03081434 0.27474344
-0.33218786 0.2396843 0.16101901 -0.26347947 0.07207805 0.102731004 -0.2740155 0.15159647
-0.11169389 -0.14810997 -0.023252971 0.12490518 0.17768395 -0.32025516 0.013288821 -0.30779055
0.0815782 -0.062684186 -0.04093584 -0.27480733 0.18253441 -0.20687677 -0.045093503 -0.29651704
0.23669885 0.0658714 0.031016635 0.24815795 0.04034349 0.23172611 -0.25036675 -0.03824132
-0.18037513 0.11214476 -0.31311542 -0.09204813 0.019896062 0.33002332 -0.12890428 -0.20352991
-0.2037019 -0.15474215 -0.0474904 0.24759516 -0.012572175 -0.16951567 -0.0025595194 -0.29818353
-0.0017478219 -0.21879931 0.28962994 0.27919737 -0.19420181 0.08154092 -0.089500315 -0.11229456
0.293313 0.29601285 0.2558971 -0.31699052 0.07292851 0.17533632 0.15495314 -0.2263303
00000000: ad37 9e3e a35c 8ebe 2a2d 96be 49db 85be
00000010: 21da 563e 689d 81be f160 0a3e e46a 83be
00000020: 8cce b13d dacc 113e 63f2 7bbe f678 1dbd
00000030: 1e39 69be bce6 973e 22dc 9abd 2735 7abe
00000040: 85c3 82bd 6004 013e f2b1 7ebe aee1 7c3e
00000050: 29e6 583d 473c 8cbe b676 623e 049f d43d
00000060: 3bd3 363e 99d3 12bd 2813 32be 7ccc 31be
00000070: d52f fc3d 028b 753e 4e85 e13d a800 29be
00000080: c4ba a83e 89bd 423d 6270 55be cd8b 3e3e
00000090: b7f1 373e 6005 83bd 0b06 e0bd b5c1 4ebe
000000a0: 7488 503e cb3e a73e 82fe aebd 2769 223e
000000b0: 9679 4d3e 32e2 ea3d 49d9 95be 8bde 5f3e
000000c0: df6f 85bd 44e6 a0be 3ec6 0fbe 42e1 7fbd
000000d0: 7b05 633e c440 a5be 508e b33d 86af 86be
000000e0: b613 703e 2a8f 69be f178 79be 2a63 e9bd
000000f0: 3b06 f3bd 962f b6bd 9321 8ebe ba32 36be
00000100: 68ef 90bd 4d17 283e 16a2 943d 4703 803e
00000110: 5cc9 11be 2818 85bd 84f2 3d3e 4ed4 e8bd
00000120: e96c 9fbe e3a9 9bbe f515 5ebe 0d18 803d
00000130: d0e7 98be a83f 8abd 0fee aabe fef3 ddbd
00000140: b6ef fcbd 0036 9ebe bd39 933e a972 b13d
00000150: 27c9 21be 00f1 a33e 8bd6 8e3e c4a7 e53c
00000160: 7296 18bd 942c 833e 5799 fd3c 1f09 0a3d
00000170: 0572 11bd 8b91 d63d d252 3a3e 1c11 963e
00000180: 1a62 5fbe 5a74 2a3c 4dac 9b3d 31e6 013e
00000190: d538 4e3e e6d4 513e 0f5d a5be a937 e63d
000001a0: 52c4 423b 3e3b 2a3c 7977 93be ee48 813e
000001b0: 8292 ee3d 3d15 91be 6198 8d3e 9e12 843e
000001c0: 7095 99be 867b c7bd 2e7a a7be c555 9dbc
000001d0: 7794 05bd 5d69 a5be ba94 51be f51b c8bc
000001e0: b5fa a93e f1a9 4d3e 65d9 a13e d833 c23c
000001f0: 80e2 8abe 1075 2f3e 82e9 8fbd 417e 553d
00000200: c4ae a63e d550 4abe ebee c73b 9732 9cbe
00000210: 89b7 e7bd ffe0 7cbd 2199 5e3d 83d3 883e
00000220: a312 a53e 8ffb 8c3e 7f76 053d 2e28 853e
00000230: 3fef f7bd ec65 febd 704f eebd 72de 4bbe
00000240: f6d4 b7bd dca6 61bd 3fb1 34be b2d1 9b3d
00000250: b41f d93d e53b 4cbe 8fa0 a2be f5ef 0bbd
00000260: 607c d0bb b4cf 8a3d 347c 3d3e 4d7c 3cbe
00000270: 984c aebd d8d3 44be 6f3d b2bd 9819 8ebe
00000280: 5b4e a43e 4372 aabe f0e2 053e 7988 dd3c
00000290: f241 f23b 1749 14be fa43 4e3e 2bf5 4d3d
000002a0: a51d 77bd 369d a03e c8a5 a1be 84c0 55bd
000002b0: 4125 a0be 2576 613e 011c 46be 8993 103d
000002c0: 6bb3 99be b3b2 3e3e 7549 8dbd 1d79 b23d
000002d0: e4d3 aa3e 49b6 cd3d 1bfc 783e b046 2a3e
000002e0: 7d0b 9ebc f47a ebbc f153 8dbe b47d 88be
000002f0: 52a5 203e 8f61 ac3d 5b6e fc3c 2cab 8c3e
00000300: 8714 aabe cd6f 753e 2be2 243e c8e6 86be
00000310: a89d 933d a264 d23d c24b 8cbe 1b3c 1b3e
00000320: c4bf e4bd 24aa 17be 047d bebc 49ce ff3d
00000330: c8f2 353e 7cf8 a3be 5bb9 593c b996 9dbe
00000340: 7912 a73d 9160 80bd 57ac 27bd 8cb3 8cbe
00000350: 4dea 3a3e 81d7 53be f7b3 38bd 15d1 97be
00000360: 2f61 723e 96e7 863d 9916 fe3c 1e1d 7e3e
00000370: 373f 253d 9c49 6d3e 1230 80be eea2 1cbd
00000380: 42b4 38be 27ac e53d aa50 a0be bb83 bcbd
00000390: 11fd a23c d1f8 a83e 7cff 03be 256a 50be
000003a0: 3b97 50be ba74 1ebe 4b85 42bd 9689 7d3e
000003b0: 86fb 4dbc 8495 2dbe 9cbd 27bb 83ab 98be
000003c0: 2c17 e5ba ed0c 60be 604a 943e f5f2 8e3e
000003d0: d7dc 46be edfe a63d f14b b7bd b1fa e5bd
000003e0: 1f2d 963e ff8e 973e f204 833e 954c a2be
000003f0: 8b5b 953d 5d8b 333e 09ac 1e3e 21c3 67be

conv1.bias f4 [32]
0.05708467 0.1634437 -0.09766713 -0.090570815 -0.051233996 -0.02188462 0.07520186 0.22040635
-0.31366342 0.29413015 0.33288348 -0.18249337 0.17924388 0.08217528 -0.22975501 0.015109707
-0.08153366 0.27247593 -0.14105089 -0.06529355 0.27143905 -0.18328784 -0.3057835 0.2780385
0.040623024 0.12490141 0.060795937 -0.14007795 0.089385614 0.13936917 0.009395889 0.16487302
00000000: 9dd1 693d c95d 273e b405 c8bd 317d b9bd
00000010: bdda 51bd 6047 b3bc 6f03 9a3d 34b2 613e
00000020: 7e98 a0be 3a98 963e b46f aa3e 8bdf 3abe
00000030: b58b 373e 834b a83d e644 6bbe b48e 773c
00000040: 1ffb a6bd f781 8b3e a56f 10be a0b8 85bd
00000050: 0ffa 8a3e cfaf 3bbe a88f 9cbe 105b 8e3e
00000060: 5464 263d 4fcc ff3d 2905 793d 9870 0fbe
00000070: ce0f b73d cbb6 0e3e 37f1 193c 79d4 283e

bn1.weight f4 [32]
0.9988112 0.99951863 0.9992037 0.99812096 0.99992484 0.99824274 1.0030737 0.9963101
0.9997535 0.99961984 0.9992703 0.9998375 0.9999343 0.9991024 1.0019022 0.9969826
0.9980892 1.0003206 1.0023528 1.0002475 1.0029169 0.9990229 0.9975622 1.0023876
1.0029472 1.0009845 0.99816674 1.0022558 0.99924386 1.0022047 1.0020777 0.99969757
00000000: 17b2 7f3f 74e0 7f3f d0cb 7f3f db84 7f3f
00000010: 13fb 7f3f d68c 7f3f b864 803f 2e0e 7f3f
00000020: d8ef 7f3f 16e7 7f3f 2ed0 7f3f 5af5 7f3f
00000030: b2fb 7f3f 2dc5 7f3f 553e 803f 403a 7f3f
00000040: c682 7f3f 810a 803f 194d 803f 1c08 803f
00000050: 955f 803f f7bf 7f3f 3d60 7f3f 3d4e 803f
00000060: 9360 803f 4320 803f db87 7f3f eb49 803f
00000070: 72ce 7f3f 3e48 803f 1544 803f 2eec 7f3f

bn1.bias f4 [32]
0.0035158703 0.0024298423 0.0020390628 0.00021087768 0.0032184366 0.0013028287 0.0020973484 0.0020697517
0.0019974269 -0.00042672365 0.0020450628 -0.00066990487 0.0010469151 0.0017647205 0.0011442242 -0.00027418262
0.00438019 0.0012044676 0.0007515128 0.0014171666 0.0025754473 4.0296905e-05 0.0009047236 0.0034973898
7.108579e-05 0.0016224462 0.002150606 0.0013615958 0.0033029697 0.00047311766 0.0015258758 0.0023741461
00000000: 846a 663b fd3d 1f3b cca1 053b 0c1f 5d39
00000010: 68ec 523b adc3 aa3a ab73 093b aca4 073b
00000020: 43e7 023b e1b9 dfb9 7606 063b 8e9c 2fba
00000030: a438 893a 324e e73a cbf9 953a 2bc0 8fb9
00000040: b287 8f3b 3adf 9d3a 2c01 453a 38c0 b93a
00000050: d6c8 283b 7904 2938 f92a 6d3a 7734 653b
00000060: e513 9538 43a8 d43a 2ef1 0c3b 9377 b23a
00000070: a376 583b c70c f839 e5ff c73a 9097 1b3b

bn1.running_mean f4 [32]
0.06506816 0.16969001 -0.09475474 -0.09919191 -0.05707195 -0.02413555 0.07874269 0.22546962
-0.27585575 0.28610384 0.3420237 -0.20778914 0.17976595 0.11137199 -0.2486651 0.0040065716
-0.061821178 0.27834156 -0.1378216 -0.07600041 0.25689036 -0.19873291 -0.2943864 0.30292997
0.052777182 0.15585862 0.04144095 -0.14408 0.07281726 0.14659259 0.01783928 0.1780456
00000000: 7542 853d 38c3 2d3e c60e c2bd 2125 cbbd
00000010: 47c4 69bd ebb7 c5bc d943 a13d 82e1 663e
00000020: f73c 8dbe 347c 923e bb1d af3e adc6 54be
00000030: 9114 383e ff16 e43d 10a2 7ebe 8f49 833b
00000040: 3438 7dbd c982 8e3e 1b21 0dbe 1aa6 9bbd
00000050: 2287 833e a480 4bbe d0b9 96be a319 9b3e
00000060: e32c 583d 6799 1f3e fcbd 293d b589 13be
00000070: 3721 953d 5e1c 163e af23 923c 9651 363e

bn1.running_var f4 [32]
12.3598795 13.316152 11.485341 7.1563544 19.946445 14.080742 21.814846 6.7068524
30.779528 15.266245 12.674263 14.467997 16.396313 27.016823 12.030364 21.485144
14.806137 11.983574 9.562881 9.449396 27.751894 14.508376 9.307017 18.896475
16.724049 26.17626 13.303672 31.699677 4.3863645 8.910508 28.101511 9.204545
00000000: 11c2 4541 f50e 5541 f5c3 3741 db00 e540
00000010: 5292 9f41 b84a 6141 ce84 ae41 899e d640
00000020: 793c f641 8a42 7441 c8c9 4a41 ea7c 6741
00000030: a62b 8341 7422 d841 5f7c 4041 93e1 ab41
00000040: f0e5 6c41 b8bc 3f41 9001 1941 ba30 1741
00000050: e103 de41 4f22 6841 8be9 1441 fb2b 9741
00000060: daca 8541 fb68 d141 d7db 5441 f098 fd41
00000070: 195d 8c40 7191 0e41 e5cf e041 d145 1341

conv2.weight f4 [64, 32, 3]
-0.076933205 0.026203947 0.085224025 -0.009332405 0.093975626 -0.01662278 -0.046568472 0.0050066384
0.06426658 0.0024849859 -0.07062382 0.06055775 0.03246476 -0.07262159 0.013058368 0.008844426
0.020130478 -0.010596495 0.07787609 -0.08141103 -0.006564459 0.017693643 -0.045873944 -0.00792302
-0.10005328 -0.00111016 0.004123884 -0.017934788 -0.10000368 0.04322797 -0.042992916 0.095742665
0.09576534 0.0865835 0.08167061 0.078168854 -0.00046077563 0.044354636 -0.030265853 -0.0021312458
-0.07324022 -0.013596147 0.005852631 -0.017686 -0.09434263 0.017723821 -0.0115364 -0.042123444
-0.043366045 -0.04359478 0.060964964 0.023110086 -0.0132483365 -0.03756261 -0.00013743309 -0.067906246
0.10087529 -0.07302703 0.044959415 -0.08931 -0.07448228 -0.10136092 -0.053995043 -0.08929981
-0.05832894 -0.023117917 0.03186059 -0.044544734 0.059165686 -0.07403556 -0.086909525 -0.08149001
-0.085839435 0.036664966 0.073500164 0.03650194 0.007931503 0.08515433 -0.0139625035 0.056387007
-0.04957728 0.016753893 -0.011449084 0.083720595 -0.043672536 0.062008336 -0.009124988 -0.07049315
-0.04300144 -0.09428705 0.06803799 0.039227698 -0.07840872 -0.059184436 0.05661057 0.07389405
0.062632635 0.061244268 -0.030657625 0.09228089 -0.09699459 -0.036089256 0.04268941 0.044206407
-0.025171507 -0.053984478 0.036107972 0.05326719 0.045369208 0.0062719826 0.0254333 -0.08312423
-0.09886596 -0.085587084 0.069306195 -0.015793048 0.025728371 0.056248292 -0.06555646 0.0031708386
0.08334087 0.035162367 0.079453036 0.047235094 -0.0733016 -0.08883754 -0.01712489 -0.08558833
0.03826022 0.07133083 0.06616876 0.09650092 -0.04280129 0.07771038 -0.09135581 -0.049162142
0.0033434783 0.067716844 -0.06993378 -0.09756028 -0.09552477 0.018958367 0.05262103 0.090763435
0.0735659 0.09752128 0.08033271 -0.09942386 -0.10388894 0.023435302 -0.07299524 0.027340876
0.08592206 0.01571461 -0.022351569 -0.037587456 -0.05487167 0.08109744 -0.034867827 0.077546075
0.028769141 -0.0049737897 0.07209137 -0.030069387 0.032525178 0.018574413 -0.09859848 -0.07002125
0.09056689 -0.0149362115 -0.051419932 -0.07554723 -0.0037745729 -0.07902333 -0.035694342 0.07786277
0.09766602 0.084359616 -0.025984662 -0.09013126 0.049839817 -0.032104153 -0.07396835 0.024853077
-0.018513422 0.09633105 0.023778485 0.043134853 0.02970919 0.03154846 -0.100980856 -0.011540062
0.032570824 -0.063735105 0.08520812 0.010097114 0.011281251 0.034524873 -0.039138254 0.061347686
0.04613083 0.046403527 -0.058105167 -0.01358398 0.032421783 -0.0037754315 -0.04026862 -0.01713599
0.0359462 -0.053180195 0.10090922 0.03725818 0.07342597 0.016016385 0.03579343 -0.018151714
-0.038898613 -0.018536424 -0.07071197 -0.0949507 -0.010746547 0.06562956 0.04031923 0.09976894
-0.013133706 0.0154287815 0.016699664 0.05632774 0.089129046 -0.07809701 -0.036164377 -0.01029697
-0.018852483 0.063867755 -0.10097207 -0.07060002 -0.06704115 0.042934816 -0.07720692 0.0106130475
-0.013819667 0.021475207 -0.0022356682 0.003689022 0.07320304 0.01851419 0.04746013 -0.072367705
-0.023278905 -0.052480277 -0.072356306 -0.06113629 -0.02673889 0.032213025 -0.028889345 -0.07921914
00000000: 288f 9dbd a9a9 d63c ef89 ae3d f2e6 18bc
00000010: 4b76 c03d 7f2c 88bc 95be 3ebd ba0e a43b
00000020: 329e 833d 25db 223b 39a3 90bd 670b 783d
00000030: c5f9 043d a1ba 94bd c4f2 553c 36e8 103c
00000040: ace8 a43c ec9c 2dbc 807d 9f3d d3ba a6bd
00000050: ac1a d7bb 42f2 903c 51e6 3bbd 8ecf 01bc
00000060: bce8 ccbd ca82 91ba a521 873b faeb 92bc
00000070: bbce ccbd d00f 313d 5719 30bd bb14 c43d
00000080: 9e20 c43d b152 b13d ec42 a73d fe16 a03d
00000090: 4294 f1b9 35ad 353d 18f0 f7bc 5fac 0bbb
000000a0: f8fe 95bd 60c2 5ebc 6dc7 bf3b 3be2 90bc
000000b0: b536 c1bd 8c31 913c 2b03 3dbc a289 2cbd
000000c0: 98a0 31bd 7190 32bd 66b6 793d 5d51 bd3c
000000d0: 8d0f 59bc 40db 19bd ea1b 10b9 6e12 8bbd
000000e0: b497 ce3d 328f 95bd 5d27 383d 29e8 b6bd
000000f0: 2a8a 98bd 5096 cfbd e829 5dbd d2e2 b6bd
00000100: 54ea 6ebd c961 bdbc 4080 023d 8a74 36bd
00000110: b857 723d f59f 97bd 9ffd b1bd 3ce4 a6bd
00000120: 96cc afbd 012e 163d 4187 963d 0f83 153d
00000130: 22f3 013c 6565 ae3d fcc2 64bc 10f6 663d
00000140: 8c11 4bbd 763f 893c f094 3bbc b475 ab3d
00000150: f9e1 32bd 74fc 7d3d f980 15bc b65e 90bd
00000160: 4722 30bd 9219 c1bd 8057 8b3d 39ad 203d
00000170: c094 a0bd 616b 72bd 7ce0 673d c455 973d
00000180: 8a45 803d 45db 7a3d b325 fbbc c3fd bc3d
00000190: 19a5 c6bd 54d2 13bd 17db 2e3d c711 353d
000001a0: 7a34 cebc d41e 5dbd f4e5 133d b22e 5a3d
000001b0: 10d5 393d 3485 cd3b 7f59 d03c 093d aabd
000001c0: 3d7a cabd 4848 afbd 68f0 8d3d 6c60 81bc
000001d0: 4ec4 d23c 9c64 663d 7742 86bd d8cd 4f3b
000001e0: 9eae aa3d 6a06 103d 46b8 a23d 9679 413d
000001f0: 261f 96bd 75f0 b5bd 7f49 8cbc ef48 afbd
00000200: c0b6 1c3d e615 923d 7d83 873d 46a2 c53d
00000210: 6850 2fbd 9f26 9f3d c118 bbbd 3e5e 49bd
00000220: 421e 5b3b 21af 8a3d 7139 8fbd afcd c7bd
00000230: 7ea2 c3bd 944e 9b3c 2689 573d 2ee2 b93d
00000240: b8a9 963d 3db9 c73d 7a85 a43d bd9e cbbd
00000250: b9c3 d4bd 64fb bf3c 877e 95bd f9f9 df3c
00000260: e8f7 af3d edbb 803c a31a b7bc 4ef5 19bd
00000270: 1ec1 60bd 6a16 a63d 91d1 0ebd 7ad0 9e3d
00000280: 43ad eb3c 2cfb a2bb a4a4 933d 1354 f6bc
00000290: 1f39 053d 5e29 983c 00ee c9bd 4d67 8fbd
000002a0: 227b b93d 03b7 74bc b59d 52bd 82b8 9abd
000002b0: d35e 77bb fcd6 a1bd 3b34 12bd 8476 9f3d
000002c0: 1f05 c83d bcc4 ac3d c9dd d4bc bd96 b8bd
000002d0: d624 4c3d a57f 03bd b87c 97bd ae98 cb3c
000002e0: 76a9 97bc 3749 c53d 19cb c23c 2cae 303d
000002f0: b060 f33c f538 013d 0dcf cebd 8712 3dbc
00000300: fc68 053d 8d87 82bd 9881 ae3d 5e6e 253c
00000310: ffd4 383c f469 0d3d 6f4f 20bd b647 7b3d
00000320: aef3 3c3d a011 3e3d afff 6dbd 578f 5ebc
00000330: b4cc 043d 3b6d 77bb b5f0 24bd c760 8cbc
00000340: 533c 133d 7ad3 59bd 7ea9 ce3d 099c 183d
00000350: 5b60 963d cb34 833c 229c 123d e7b2 94bc
00000360: 2754 1fbd b3d9 97bc 70d1 90bd 8375 c2bd
00000370: 4912 30bc ca68 863d c725 253d a853 cc3d
00000380: c12e 57bc 00c9 7c3c bccd 883c ebb7 663d
00000390: 4a89 b63d 53f1 9fbd 1921 14bd 9fb4 28bc
000003a0: 8670 9abc 19cd 823d 72ca cebd be96 90bd
000003b0: df4c 89bd 6bdc 2f3d a91e 9ebd 59e2 2d3c
000003c0: e26b 62bc c6ec af3c 4a84 12bb 85c3 713b
000003d0: 7aeb 953d 12ab 973c 8e65 423d 8535 94bd
000003e0: 67b3 bebc 8ff5 56bd 8b2f 94bd 0c6a 7abd
000003f0: 840b dbbc cef1 033d 59a9 ecbc a53d a2bd

conv2.bias f4 [64]
-0.0151926875 0.06254516 -0.053283382 -0.06262832 0.06577548 -0.02822555 -0.10091346 -0.02222822
0.016166054 0.038070254 -0.07802233 -0.052900404 -0.0033353844 -0.0007485486 -0.04177187 0.011356506
0.030408828 -0.08793894 -0.101986185 0.016641358 0.011358692 0.084624626 -0.06867709 0.004141833
-0.0030387316 0.018588722 -0.05874977 0.012345084 0.037284132 -0.09956423 0.008910916 -0.100754395
-0.072416864 -0.019763023 0.08285108 0.08525549 0.06886222 0.028204283 -0.054683406 -0.06222848
-0.077475354 0.058381412 -0.018913835 -0.03523731 0.0562161 -0.062324803 -0.043871365 0.023885103
0.05290571 -0.100472406 0.035748858 -0.030916609 -0.003906688 0.023103992 -0.08402609 0.01057437
-0.08587462 0.017615102 -0.07922449 -0.09622104 0.04090304 -0.089037545 0.0721968 0.0031190312
00000000: c0ea 78bc ad17 803d ad3f 5abd 4743 80bd
00000010: 4bb5 863d 4539 e7bc b7ab cebd f517 b6bc
00000020: ac6e 843c 8eef 1b3d 2cca 9fbd 18ae 58bd
00000030: 7796 5abb 3f3a 44ba fb18 2bbd a310 3a3c
00000040: ef1b f93c 5519 b4bd 22de d0bd 7553 883c
00000050: cf19 3a3c ad4f ad3d 93a6 8cbd 37b8 873b
00000060: 7525 47bb 6047 983c 99a3 70bd 0943 4a3c
00000070: 3fb7 183d 55e8 cbbd 17ff 113c 5258 cebd
00000080: 4b4f 94bd 10e6 a1bc d4ad a93d 6e9a ae3d
00000090: a307 8d3d ab0c e73c b5fb 5fbd 4ae3 7ebd
000000a0: 66ab 9ebd 5921 6f3d 30f1 9abc ff54 10bd
000000b0: da42 663d 4b48 7fbd 76b2 33bd b1aa c33c
000000c0: a8b3 583d 7ac4 cdbd 656d 123d d444 fdbc
000000d0: ad03 80bb 9544 bd3c df15 acbd 1f40 2d3c
000000e0: 08df afbd 8c4d 903c 7340 a2bd 890f c5bd
000000f0: f289 273d 5159 b6bd eadb 933d a968 4c3b

bn2.weight f4 [64]
1.0015879 0.9995694 1.0029496 0.9967117 1.0007298 0.9968634 0.99775404 1.0053184
0.9972376 1.001368 1.0031908 0.99897367 0.99660957 0.998486 0.9994193 1.00489
0.99900734 0.99736035 0.99925834 1.0021703 1.0031847 0.9996252 0.99818194 1.0013158
1.0028898 0.9983585 1.0004358 1.0046945 1.003085 0.99754524 0.9986451 0.9968943
1.00003 1.0053953 1.0000312 1.0053934 0.9973794 0.99875987 1.0049529 0.9975613
0.99679804 0.9985926 0.99936837 0.9968746 0.9997238 1.0053049 0.9975423 0.99553454
1.0036753 0.9975858 0.995449 1.0030515 0.9967024 1.0001327 1.0019584 0.99655634
0.9988558 1.0014766 0.9969425 0.998564 1.001259 0.9993273 0.99881274 1.0047766
00000000: 0834 803f c8e3 7f3f a760 803f 7f28 7f3f
00000010: ea17 803f 7132 7f3f cf6c 7f3f 46ae 803f
00000020: f74a 7f3f d42c 803f 8e68 803f bdbc 7f3f
00000030: ce21 7f3f c79c 7f3f f1d9 7f3f 3ca0 803f
00000040: f2be 7f3f 0253 7f3f 65cf 7f3f 1e47 803f
00000050: 5b68 803f 70e7 7f3f da88 7f3f 1e2b 803f
00000060: b15e 803f 6c94 7f3f 480e 803f d499 803f
00000070: 1765 803f 205f 7f3f 35a7 7f3f 7734 7f3f
00000080: fc00 803f cbb0 803f 0601 803f bbb0 803f
00000090: 4254 7f3f baae 7f3f 4ca2 803f 2d60 7f3f
000000a0: 282e 7f3f c4a3 7f3f 9bd6 7f3f 2c33 7f3f
000000b0: e6ed 7f3f d5ad 803f ef5e 7f3f 5adb 7e3f
000000c0: 6f78 803f c861 7f3f bfd5 7e3f fe63 803f
000000d0: e327 7f3f 5904 803f 2c40 803f 511e 7f3f
000000e0: 04b5 7f3f 6330 803f a037 7f3f e4a1 7f3f
000000f0: 4129 803f ead3 7f3f 31b2 7f3f 859c 803f

bn2.bias f4 [64]
0.0018808075 0.0042155893 0.0007727936 0.0021777472 0.0037402215 -0.0019505317 0.0010385629 0.0050506387
0.0024320062 -0.00025763432 0.0015350468 0.0031291633 -0.0019375053 -0.00228749 0.003172687 0.0031967973
0.003977415 0.0014068463 0.00063736126 0.0026525052 0.0044978713 0.0029710704 0.0027727408 0.00035331585
0.0007777515 -0.0016667517 0.0036935955 0.00412244 0.0038255565 0.001630424 0.0011197194 0.0005080763
-0.001645795 0.0042368965 0.00034253084 0.0035504408 0.0043235784 -0.0012216552 0.002875204 0.0042961957
0.0032747248 0.0047293627 -0.00094370334 0.0007946207 0.002263117 0.0032334058 -0.004252011 -0.004629787
0.0029062717 -0.0038007824 0.003933099 0.0036919669 0.0032662794 0.004798771 -0.00010228695 -0.0021129297
0.0032836322 0.003524838 -0.0037378792 0.0052761673 0.0018851008 0.001295834 0.002793135 0.0047660396
00000000: 6d85 f63a ed22 8a3b 4d95 4a3a 89b8 0e3b
00000010: 811e 753b fca8 ffba 6320 883a d47f a53b
00000020: 4b62 1f3b 1813 87b9 a033 c93a a612 4d3b
00000030: e4f3 fdba b7e9 15bb dbec 4f3b 5c81 513b
00000040: fa54 823b ee65 b83a 9714 273a a7d5 2d3b
00000050: e162 933b 4ab6 423b dfb6 353b 403d b939
00000060: 05e2 4b3a e876 daba 4010 723b 8815 873b
00000070: 30b6 7a3b f4b3 d53a 8cc3 923a 6c30 053a
00000080: b7b7 d7ba aad5 8a3b b695 b339 83ae 683b
00000090: ceac 8d3b f21f a0ba eb6d 3c3b 1ac7 8c3b
000000a0: c49c 563b c5f8 9a3b dc62 77ba 184e 503a
000000b0: ce50 143b 8ce7 533b 7454 8bbb 78b5 97bb
000000c0: 2677 3e3b 8c16 79bb 3ae1 803b edf4 713b
000000d0: 130f 563b 023f 9d3b e382 d6b8 1479 0abb
000000e0: 3532 573b f800 673b 35f7 74bb b3e3 ac3b
000000f0: 7d15 f73a f9d8 a93a 070d 373b 702c 9c3b

bn2.running_mean f4 [64]
-0.10680668 0.118965335 -0.13589153 -0.06327956 0.01925968 -0.036660355 0.037474796 -0.22171907
0.12856132 -0.0025888884 0.13413523 -0.1286704 -0.015534307 0.047374133 0.2683492 -0.09877135
0.07344269 -0.10491227 -0.15510404 -0.060998388 -0.11319268 0.08921275 -0.0506423 0.010196148
-0.19714473 0.21455391 0.22126746 -0.14400245 -0.09079431 -0.100609265 0.00068886066 -0.06927577
0.029233046 -0.2555805 0.1338119 -0.061982144 0.1453399 0.026448254 -0.27577075 0.019019825
-0.002829996 0.08208866 -0.009821808 0.04278131 0.042569455 -0.27736428 -0.08665876 0.04356437
-0.014333718 -0.11621663 0.19245401 -0.12827325 0.0579057 0.085828185 -0.2583794 -0.0024315158
0.026394354 -0.046949346 -0.09348386 -0.06659401 0.17084527 -0.10751055 0.069833934 -0.076960824
00000000: 76bd dabd 19a4 f33d 2627 0bbe b798 81bd
00000010: 7ac6 9d3c 2b29 16bd 2c7f 193d 530a 63be
00000020: 94a5 033e 57aa 29bb bf5a 093e 2cc2 03be
00000030: 9b83 7ebc 610b 423d 1165 893e a248 cabd
00000040: 1f69 963d 3fdc d6bd 98d3 1ebe 72d9 79bd
00000050: 90d1 e7bd 2db5 b63d 4d6e 4fbd bf0d 273c
00000060: 4fe0 49be 05b4 5b3e f093 623e 6175 13be
00000070: 5ef2 b9bd 3b0c cebd a894 343a 74e0 8dbd
00000080: 247a ef3c 73db 82be fd05 093e fde0 7dbd
00000090: fcd3 143e 02aa d83c d331 8dbe 77cf 9b3c
000000a0: 7477 39bb 191e a83d a6eb 20bc 743b 2f3d
000000b0: 4f5d 2e3d b102 8ebe 267a b1bd 8e70 323d
000000c0: f9d7 6abc fc02 eebd aa12 453e 105a 03be
000000d0: 872e 6d3d b0c6 af3d 4e4a 84be 115a 1fbb
000000e0: f938 d83c f54d 40bd 7774 bfbd 7162 88bd
000000f0: 10f2 2e3e 7e2e dcbd 1805 8f3d a39d 9dbd

bn2.running_var f4 [64]
0.10710074 0.09611288 0.0813521 0.08860599 0.12229439 0.17038986 0.21327798 0.34901696
0.14760101 0.1600565 0.34036475 0.14597182 0.07669948 0.08116317 0.45973465 0.12891681
0.113121904 0.08271562 0.12979549 0.06984668 0.22863838 0.120482855 0.060852196 0.104790084
0.24544953 0.22983703 0.40970317 0.21344984 0.26507193 0.26143435 0.09375382 0.11365794
0.10484644 0.2787333 0.07541266 0.17395827 0.11193279 0.046203002 0.25438547 0.08637515
0.10303915 0.0753781 0.11602194 0.11666519 0.14730091 0.2369802 0.14352062 0.0851081
0.103896886 0.06911409 0.17157263 0.14431193 0.15085432 0.081876434 0.30661651 0.13534053
0.1562991 0.15170139 0.11001747 0.09684869 0.18912765 0.11608877 0.08902396 0.08553093
00000000: a257 db3d d4d6 c43d ee9b a63d 0f77 b53d
00000010: 7b75 fa3d ae7a 2e3e 8b65 5a3e 5ab2 b23e
00000020: b824 173e dae5 233e 4a44 ae3e a379 153e
00000030: 9e14 9d3d e038 a63d 5762 eb3e c502 043e
00000040: 75ac e73d cf66 a93d 1ce9 043e c70b 8f3d
00000050: 2e20 6a3e b7bf f63d 2740 793d 2f9c d63d
00000060: 1f57 7b3e 665a 6b3e 9dc4 d13e 9892 5a3e
00000070: 82b7 873e b9da 853e 0102 c03d 7ec5 e83d
00000080: bbb9 d63d 22b6 8e3e f471 9a3d 1e22 323e
00000090: 053d e53d 5c3f 3d3d d03e 823e 74e5 b03d
000000a0: 3106 d33d d55f 9a3d e99c ed3d 29ee ee3d
000000b0: 0dd6 163e f0aa 723e 12f7 123e 284d ae3d
000000c0: e4c7 d43d b08b 8d3d bcb0 2f3e 82c6 133e
000000d0: 8e79 1a3e d5ae a73d d7fc 9c3e b596 0a3e
000000e0: df0c 203e 9c57 1b3e d750 e13d 9b58 c63d
000000f0: aeaa 413e f3bf ed3d 3252 b63d d72a af3d

conv3.weight f4 [128, 64, 3]
0.06984688 -0.0024775383 0.03282231 0.00554244 0.067134485 -0.038600016 0.0099741155 -0.04682145
0.03805722 0.069428176 -0.045561813 -0.06385659 0.023539219 -0.0031738444 0.015721908 -0.010415429
0.030484814 -0.014288598 0.00042673436 -0.025389902 0.027751125 0.02405341 0.06258316 0.049077492
0.012979723 -0.006287468 -0.0054576444 -0.034558207 0.05922345 -0.04856826 0.068881795 -0.030211464
-0.038256038 0.002889618 -0.016265476 -0.05074358 -0.016595813 0.037778817 0.0023234964 0.07043454
0.01911693 -0.045037843 -0.051430408 -0.03336662 -0.0440766 0.02400726 -0.014640419 -0.04745907
0.04662648 -0.06413461 -0.030242642 0.035145167 0.027244754 0.040714905 0.013089709 -0.06211194
0.021096185 -0.06042594 -0.067752644 0.07439805 0.009491374 -0.041692186 0.07562015 -0.032821383
-0.05966312 0.030995568 0.05956556 -0.03500938 0.04836925 -0.03513653 -0.01874317 0.03947302
0.032522745 0.0596478 -0.019232463 0.041592263 0.045370348 -0.028064556 -0.06583528 0.0072635617
0.027326398 -0.056202278 -0.055955864 0.06258339 0.006935899 -0.044233456 0.076688506 0.0606389
-0.029066527 0.0030001318 -0.039893117 0.020676063 0.038626328 0.051554915 0.06533553 0.009711068
-0.052362088 -0.06791917 0.015562998 0.037562955 -0.03832986 0.009154774 -0.0629039 0.02525374
0.024758978 -0.06662115 -0.01440533 -0.056083303 -0.04930747 -0.043179866 0.048435383 -0.035005078
-0.005988895 0.06530396 -0.059806567 0.040738158 -0.0028191837 0.001654478 0.051059857 -0.06658172
0.02838866 0.036714442 -0.011137537 0.008512812 0.050029386 -0.04808165 0.05840969 -0.05145329
0.03630095 0.058777586 0.023112236 -0.06107084 0.07040802 0.015181227 -0.02144517 0.05005232
0.054026704 0.027896326 -0.055355813 0.015259554 -0.03065981 -0.0418075 0.065986104 -0.041117236
-0.047642455 -0.018203305 0.07415165 -0.023597552 -0.0550624 -0.038929638 -0.040897146 0.028840996
0.032511365 0.04302859 0.006764472 -0.05507409 -0.049347337 0.03532399 -0.0667398 0.014192603
-0.047508933 -0.008379026 -0.018529003 0.045857884 0.013870505 -0.05294267 -0.04777661 -0.0057808077
0.031076869 -0.017817494 -0.028965726 -0.06094386 0.020756083 0.051244583 -0.0003913324 0.0039102705
-0.052099686 -0.041925464 -0.06108153 -0.0039725695 -0.056833006 -0.035186626 0.017804785 -0.049655724
0.0379408 0.056003332 0.026706373 0.03734531 -0.0475446 0.03494053 0.013879907 -0.008722365
-0.010637373 -0.04430496 0.003317638 -0.0683381 -0.047077518 0.019089628 0.010997017 -0.008042636
-0.073430404 -0.050269157 -0.06285119 0.06460382 -0.05605113 0.055112988 0.015951533 0.0070845294
0.021060092 -0.053989943 -0.030226745 0.036025558 -0.021775855 -0.063149594 0.028542673 -0.03585148
-0.047010295 0.029290358 0.03951271 0.04080009 0.053629253 0.027013259 -0.049646646 0.03008866
-0.03528392 0.0041772285 0.044230442 -0.044224717 -0.059126813 -0.06701852 0.011004728 0.02651194
0.049923763 0.06471696 0.019080332 0.06277112 -0.015328083 0.038253892 -0.055821337 -0.050912082
0.026268173 0.039988533 0.009397563 0.018678961 0.046768352 0.041141726 0.034273647 0.017626347
-0.06293726 0.009124731 0.013060588 0.04455931 0.012031587 -0.036932774 0.02457637 -0.027507478
00000000: e20b 8f3d 325e 22bb b070 063d 5b9d b53b
00000010: ce7d 893d 0d1b 1ebd 796a 233c d9c7 3fbd
00000020: e3e1 1b3d 5c30 8e3d 069f 3abd 3ec7 82bd
00000030: 52d5 c03c 4600 50bb 3bcb 803c 7aa5 2abc
00000040: 4abb f93c b91a 6abc 51bb df39 7cfe cfbc
00000050: 5456 e33c a80b c53c 9a2b 803d 7b05 493d
00000060: e7a8 543c 1b07 cebb 0ad6 b2bb e88c 0dbd
00000070: 4a94 723d 83ef 46bd e611 8d3d 087e f7bc
00000080: 5db2 1cbd bf5f 3d3b 2d3f 85bc 80d8 4fbd
00000090: f1f3 87bc f6bd 1a3d cd45 183b fc3f 903d
000000a0: 1c9b 9c3c 9a79 38bd b1a8 52bd 70ab 08bd
000000b0: aa89 34bd e0aa c43c 5ede 6fbc 7164 42bd
000000c0: 68fb 3e3d 0259 83bd 6bbf f7bc 61f4 0f3d
000000d0: 6430 df3c acc4 263d 3876 563c 1769 7ebd
000000e0: e8d1 ac3c 3181 77bd e6c1 8abd 015e 983d
000000f0: b581 1b3c 6dc5 2abd bdde 9a3d b76f 06bd
00000100: 5161 74bd 6bea fd3c 04fb 733d ff65 0fbd
00000110: d61e 463d 52eb 0fbd 478b 99bc 76ae 213d
00000120: 9236 053d 4051 743d 668d 9dbc a65c 2a3d
00000130: 42d6 393d a4e7 e5bc a6d4 86bd 2c03 ee3b
00000140: 9cdb df3c 5c34 66bd fa31 65bd b82b 803d
00000150: 8a46 e33b 242e 35bd dd0e 9d3d 7f60 783d
00000160: ed1c eebc dc9d 443b f766 23bd d960 a93c
00000170: a436 1e3d 3f2b 533d a2ce 853d 2c1b 1f3c
00000180: a179 56bd 3519 8bbd f2fb 7e3c 9ddb 193d
00000190: c5ff 1cbd e8fd 153c c3d3 80bd eee0 ce3c
000001a0: 57d3 ca3c ab70 88bd 5504 6cbc 9bb7 65bd
000001b0: a1f6 49bd 5fdd 30bd 2e64 463d 7c61 0fbd
000001c0: 7e3e c4bb 15be 853d bbf7 74bd 0edd 263d
000001d0: 0ec2 38bb 12db d83a 2424 513d ff5b 88bd
000001e0: 568f e83c e261 163d 377a 36bc 5279 0b3c
000001f0: 9deb 4c3d 44f1 44bd 003f 6f3d afc0 52bd
00000200: 4eb0 143d c4c0 703d df55 bd3c 6b25 7abd
00000210: 1432 903d aeba 783c c8ad afbc a903 4d3d
00000220: 1b4b 5d3d d686 e43c c7bc 62bd 3503 7a3c
00000230: 482a fbbc 573e 2bbd b923 873d 8c6a 28bd
00000240: bc24 43bd 191f 95bc d2dc 973d a74f c1bc
00000250: 1c89 61bd af74 1fbd c483 27bd f443 ec3c
00000260: a32a 053d bf3e 303d 81a8 dd3b 5e95 61bd
00000270: 6f20 4abd e3af 103d e0ae 88bd 1788 683c
00000280: ba98 42bd 2f48 09bc 23ca 97bc 7ad5 3b3d
00000290: 1d41 633c 6ada 58bd 68b1 43bd ee6c bdbb
000002a0: eb94 fe3c fef5 91bc 8849 edbc 45a0 79bd
000002b0: a908 aa3c d7e5 513d bf2b cdb9 ba21 803b
000002c0: 7b66 55bd 09ba 2bbd a030 7abd 542c 82bb
000002d0: bac9 68bd da1f 10bd 57db 913c cd63 4bbd
000002e0: d067 1b3d c063 653d 53c7 da3c 65f7 183d
000002f0: 20be 42bd cd1d 0f3d 8d68 633c 40e8 0ebc
00000300: 6048 2ebc 1e79 35bd bb6c 593b d9f4 8bbd
00000310: 5bd4 40bd da61 9c3c d52c 343c 43c5 03bc
00000320: ae62 96bd 08e7 4dbd 20b8 80bd 024f 843d
00000330: df95 65bd 28be 613d caac 823c 5725 e83b
00000340: 3786 ac3c 8f24 5dbd 149e f7bc 898f 133d
00000350: 4763 b2bc 9354 81bd 53d2 e93c 00d9 12bd
00000360: de8d 40bd 55f2 ef3c 14d8 213d ff1d 273d
00000370: 59aa 5b3d e94a dd3c 485a 4bbd 7e7c f63c
00000380: df85 10bd 22e1 883b fb2a 353d fa24 35bd
00000390: f52e 72bd 0141 89bd 2d4d 343c 912f d93c
000003a0: dc7c 4c3d 538a 843d 5b4e 9c3c 258e 803d
000003b0: a422 7bbc 1db0 1c3d eaa4 64bd 3089 50bd
000003c0: 5a30 d73c 04cb 233d 3cf8 193c 9f04 993c
000003d0: 2c90 3f3d 3a84 283d 8662 0c3d 2165 903c
000003e0: 40e5 80bd e57f 153c 14fc 553c d383 363d
000003f0: 2220 453c d246 17bd 6254 c93c 5d57 e1bc

conv3.bias f4 [128]
-0.03503233 0.028363306 -0.0030713591 0.0013343027 0.04307465 0.0039923456 -0.069948666 0.03969589
0.07201513 -0.007492189 -0.03305812 0.05170783 -0.0051364284 -0.035669502 -0.061438262 -0.03800116
-0.024137164 -0.05955217 -0.058466863 -0.04702858 -0.014401518 0.031539932 -0.008975132 0.04662335
0.067390844 -0.030627152 0.000618323 0.020722717 0.052960347 0.0027173029 -0.029784372 0.021899926
-0.022748604 0.06720677 -0.049918126 -0.040533345 0.023369063 -0.009528959 -0.033123948 0.021085992
-0.058687136 -0.03661382 0.05740633 0.03824635 0.053149287 0.039122764 -0.024151377 -0.0100554945
0.028550535 -0.016235383 0.047575746 -0.028686812 0.06368991 -0.02837147 -0.0130408155 -0.06725843
0.026384912 0.012725395 0.035206683 0.05556591 -0.016222285 0.04525646 -0.049904086 0.014457168
0.043979827 -0.021284873 0.06813835 0.060424034 -0.059982944 0.06966417 0.055938166 0.06227243
0.027448522 -0.064879656 -0.026154017 0.020260504 0.06646257 -0.013914405 0.057920244 0.061576147
0.0038180905 -0.069443226 0.06516925 0.037194166 0.06808289 -0.0042052562 0.03542364 -0.057581034
-0.038350534 -0.028084407 0.0668336 -0.04964455 0.05044648 0.0071930583 -0.045675993 -0.020693297
-0.052520797 -0.05168527 0.0023435133 -0.057790264 0.03135678 0.06959687 0.05235591 -0.046832085
0.010040448 -0.019747302 -0.006573175 -0.055931557 0.030793576 -0.0258287 -0.016094979 0.030065125
0.07136868 0.051050447 -0.057701964 0.008512827 -0.024197774 -0.054702573 -0.029599814 0.07008087
-0.030777138 -0.04214511 0.029443651 0.016448345 -0.04286214 0.040646177 -0.06550311 -0.015988916
00000000: 0f7e 0fbd 2a5a e83c db48 49bb c5e3 ae3a
00000010: 0b6f 303d 39d2 823b 3f41 8fbd 2898 223d
00000020: ab7c 933d 0981 f5bb f467 07bd 97cb 533d
00000030: 7c4f a8bb 2f1a 12bd b0a6 7bbd 1ba7 1bbd
00000040: 4dbb c5bc faec 73bd f37a 6fbd 0aa1 40bd
00000050: 58f4 6bbc 0430 013d 6f0c 13bc 20f8 3e3d
00000060: 3604 8a3d cbe5 fabc f416 223a b0c2 a93c
00000070: f3ec 583d c714 323b 5bfe f3bc 7967 b33c
00000080: 485b babc b4a3 893d f376 4cbd 4b06 26bd
00000090: 7a70 bf3c 5a1f 1cbc faac 07bd 88bc ac3c
000000a0: ec61 70bd 5ff8 15bd e622 6b3d 34a8 1c3d
000000b0: 11b3 593d 313f 203d 1cd9 c5bc cdbf 24bc
000000c0: d0e2 e93c 1100 85bc c9de 423d 9b00 ebbc
000000d0: db6f 823d 496b e8bc 25a9 55bc cabe 89bd
000000e0: 2c25 d83c 2d7e 503c e234 103d 1499 633d
000000f0: 99e4 84bc d65e 393d 3a68 4cbd c2dd 6c3c
00000100: 3124 343d 9d5d aebc 1f8c 8b3d 317f 773d
00000110: adb0 75bd 17ac 8e3d 6b1f 653d 6011 7f3d
00000120: b9db e03c a0df 84bd f340 d6bc 5bf9 a53c
00000130: 871d 883d 3ff9 63bc c73d 6d3d 4537 7c3d
00000140: ee38 7a3b 4038 8ebd 7577 853d e958 183d
00000150: 0b6f 8b3d 3fcc 89bb 6118 113d 17da 6bbd
00000160: 7315 1dbd 4511 e6bc 0ee0 883d 1558 4bbd
00000170: f8a0 4e3d bfb3 eb3b c016 3bbd fd84 a9bc
00000180: 0c20 57bd efb3 53bd a195 193b 7cb5 6cbd
00000190: f86f 003d ce88 8e3d 2773 563d 00d3 3fbd
000001a0: b180 243c 18c5 a1bc ca63 d7bb 7d18 65bd
000001b0: cf42 fc3c b696 d3bc 9ed9 83bc 234b f63c
000001c0: be29 923d 461a 513d e558 6cbd 6279 0b3c
000001d0: 693a c6bc ce0f 60bd 4f7b f2bc 8f86 8f3d
000001e0: 5620 fcbc 5aa0 2cbd d033 f13c aebe 863c
000001f0: 3690 2fbd 9b7c 263d 7f26 86bd 30fb 82bc

bn3.weight f4 [128]
1.0024563 1.0011071 1.0052456 0.9967103 0.9987145 0.9992683 0.99955845 1.0003812
0.99836123 0.99981004 0.9992401 0.9963128 0.99931675 1.0012681 0.9982209 0.9963668
1.0049605 0.99815476 1.0040833 0.99987745 0.99877065 0.99925804 0.9966168 1.0009053
1.000786 0.999148 1.0002679 1.0024883 0.99647975 0.9965758 0.9993673 0.9992354
0.99713194 0.99678457 0.9969781 0.997464 0.9963765 0.9959566 0.99961895 0.99887085
0.9996102 0.9997813 1.0040914 0.997757 1.0035998 0.9980114 0.9966126 0.9970222
0.99779737 0.9999732 0.9999217 0.9988688 1.0021964 0.99870336 1.0041686 0.99999297
1.0029321 1.0025783 0.9996163 1.0006444 1.0000701 0.99914366 1.0050309 1.0030034
0.99937814 0.99797726 0.9964699 1.0013179 1.0051266 1.0052879 0.9992404 0.9993377
0.9984124 0.9967872 0.999297 0.9954395 1.0021458 0.9992203 1.0051519 1.0016068
1.0015974 1.0040898 1.0020317 0.9967653 1.0003136 1.0045869 1.0011485 1.0033312
1.0003058 0.9973731 0.9969899 0.99770546 0.99603033 1.00384 0.99695766 1.0006943
1.0041581 1.0053105 0.99830395 0.99749655 0.9957453 0.9998469 1.004612 1.0024462
0.99945575 0.99990195 1.0050256 0.9965374 0.99793804 1.0015223 0.99880826 1.0007628
0.99914557 1.0019652 1.0030893 1.0039752 0.9969234 1.001011 1.0008997 1.0035112
0.99942315 1.0050753 1.0037279 0.9996228 0.9977689 1.0015363 1.0017676 1.0036296
00000000: 7d50 803f 4724 803f e3ab 803f 6828 7f3f
00000010: c1ab 7f3f 0cd0 7f3f 10e3 7f3f 7e0c 803f
00000020: 9a94 7f3f 8df3 7f3f 33ce 7f3f 5b0e 7f3f
00000030: 39d3 7f3f 8e29 803f 688b 7f3f e511 7f3f
00000040: 8ca2 803f 1287 7f3f cd85 803f f8f7 7f3f
00000050: 6faf 7f3f 60cf 7f3f 4722 7f3f aa1d 803f
00000060: c119 803f 2ac8 7f3f c708 803f 8951 803f
00000070: 4c19 7f3f 971f 7f3f 89d6 7f3f e4cd 7f3f
00000080: 0a44 7f3f 462d 7f3f f539 7f3f cd59 7f3f
00000090: 8812 7f3f 03f7 7e3f 07e7 7f3f 00b6 7f3f
000000a0: 74e6 7f3f abf1 7f3f 1186 803f 016d 7f3f
000000b0: f575 803f ad7d 7f3f 0122 7f3f d93c 7f3f
000000c0: a66f 7f3f 3efe 7f3f defa 7f3f deb5 7f3f
000000d0: f947 803f 06ab 7f3f 9988 803f 8aff 7f3f
000000e0: 1460 803f 7c54 803f dbe6 7f3f 1e15 803f
000000f0: 4c02 803f e1c7 7f3f daa4 803f 6a62 803f
00000100: 3fd7 7f3f 707b 7f3f a718 7f3f 2f2b 803f
00000110: fda7 803f 46ad 803f 38ce 7f3f 98d4 7f3f
00000120: f497 7f3f 722d 7f3f eed1 7f3f 20d5 7e3f
00000130: 5046 803f e7cc 7f3f d1a8 803f a734 803f
00000140: 5834 803f 0486 803f 9342 803f 032c 7f3f
00000150: 470a 803f 4e96 803f a225 803f 286d 803f
00000160: 050a 803f d853 7f3f bb3a 7f3f a069 7f3f
00000170: d8fb 7e3f d47d 803f 9e38 7f3f c016 803f
00000180: 4188 803f 04ae 803f d990 7f3f ef5b 7f3f
00000190: 2ae9 7e3f f7f5 7f3f 2097 803f 2850 803f
000001a0: 55dc 7f3f 93f9 7f3f aea4 803f 131d 7f3f
000001b0: de78 7f3f e231 803f e6b1 7f3f ff18 803f
000001c0: 01c8 7f3f 6540 803f 3b65 803f 4282 803f
000001d0: 5f36 7f3f 2121 803f 7b1d 803f 0e73 803f
000001e0: 32da 7f3f 4fa6 803f 287a 803f 48e7 7f3f
000001f0: c86d 7f3f 5732 803f ec39 803f ef76 803f

bn3.bias f4 [128]
0.002160546 0.0024287438 0.0011374404 0.004156956 -0.00014735544 -0.0009859734 -0.0007980376 0.00028063712
0.002296463 0.002362956 -0.0013556526 0.002542967 0.0029573203 -0.0013819592 0.004289444 0.0011249731
0.0028120198 -0.0014309953 0.00270622 0.0018011648 0.0018425699 0.0026444755 -0.002457136 0.0038180717
0.0038034988 0.0031279733 0.0025304088 0.0012901145 0.00417724 -0.0031352025 0.0047805873 0.0029419276
0.0005210663 0.0033415402 0.0037965549 -6.4031214e-05 -0.0015809853 1.2774214e-05 8.404594e-05 -0.0012578754
0.00042566293 0.0031824335 0.0029848863 0.0020807364 0.0003475481 -0.0012935617 -0.0031078984 0.00032401585
-0.0007631223 -0.00053176953 -0.0006579939 -0.0006642914 0.0033194155 0.0013739783 0.002252814 0.003360589
0.0006473714 0.0044194604 0.004116301 0.002881887 0.0035739767 0.0039556157 0.0030504328 0.0027939784
0.0042950944 0.002623314 0.0003929171 0.0012914707 0.0047611925 0.004619685 0.0024505896 0.0031937386
-0.0033064093 0.00012489902 -0.0011153499 0.0015122415 0.0005290738 0.00059815974 0.0037624026 -0.0015797205
-0.0023988122 0.0026445214 0.00023855084 -0.0012483755 0.0026806712 -0.0011309047 0.0050370474 -0.0019438424
0.004711914 -0.0029065164 0.00048386576 0.0049734246 -0.001790124 0.0023477776 -0.0024808103 0.003415455
0.0023787569 0.0041837497 0.003417876 0.0036473067 -0.0043690293 0.0025125623 0.0040454664 0.0008632264
0.0027100048 0.0027050192 0.0031674844 0.00081566744 -0.0027858228 -0.0028407048 0.0030725193 -0.002310971
0.00027498172 0.0052266135 0.0051514124 0.002856236 0.00080439565 0.0030637898 0.0014228144 0.0025428943
0.0046746866 0.0036115102 -0.001827205 0.0032316009 0.0011638552 0.00028380498 0.0021323138 0.0043298635
00000000: f297 0d3b 8f2b 1f3b 2b16 953a 1337 883b
00000010: 6d83 1ab9 c73b 81ba 6633 51ba 7a22 9339
00000020: 4180 163b d3db 1a3b 27b0 b1ba e8a7 263b
00000030: 9acf 413b db22 b5ba 778e 8c3b d573 933a
00000040: dd49 383b 3c90 bbba d65a 313b 1015 ec3a
00000050: 6382 f13a f04e 2d3b e707 21bb 9d38 7a3b
00000060: 1f44 793b affe 4c3b 37d5 253b 0f19 a93a
00000070: 3be1 883b f877 4dbb 79a6 9c3b 5bcd 403b
00000080: 2b98 083a befd 5a3b 9fcf 783b 7f48 86b8
00000090: 1039 cfba d550 5637 d241 b038 4bdf a4ba
000000a0: 832b df39 6090 503b 159e 433b f75c 083b
000000b0: 1e37 b639 ba8c a9ba e2ad 4bbb ace0 a939
000000c0: 450c 48ba 7366 0bba 397d 2cba d723 2eba
000000d0: 8d8a 593b 1017 b43a f2a3 133b 543d 5c3b
000000e0: 5cb4 293a 1fd1 903b 09e2 863b 0ade 3c3b
000000f0: 6139 6a3b 1c9e 813b c5e9 473b 2e1b 373b
00000100: ddbd 8c3b e8eb 2b3b 7100 ce39 9146 a93a
00000110: c703 9c3b ba60 973b 129a 203b 0b4e 513b
00000120: 58b0 58bb 53f7 0239 ef30 92ba 6836 c63a
00000130: 8bb1 0a3a d2cd 1c3a a492 763b a00e cfba
00000140: 6435 1dbb b54f 2d3b 8123 7a39 88a0 a3ba
00000150: 33ae 2f3b dd3a 94ba d10d a53b 87c8 feba
00000160: 6666 9a3b 417b 3ebb 5daf fd39 1cf8 a23b
00000170: 98a2 eaba 2cdd 193b 1795 22bb d4d5 5f3b
00000180: ebe4 1b3b d617 893b 72fe 5f3b a707 6f3b
00000190: 132a 8fbb cda9 243b d58f 843b 254a 623a
000001a0: 569a 313b b146 313b 9295 4f3b 84d2 553a
000001b0: 5a92 36bb 1e2b 3abb 525c 493b a973 17bb
000001c0: 6c2b 9039 0344 ab3b 2ecd a83b b02f 3b3b
000001d0: 14de 523a ddc9 483b bb7d ba3a b0a6 263b
000001e0: 1d2e 993b 16af 6c3b d37e efba 44c9 533b
000001f0: 808c 983a a9cb 9439 4abe 0b3b 87e1 8d3b

bn3.running_mean f4 [128]
-0.060357653 -0.013799218 -0.21772897 0.19422136 -0.08887494 -0.11682676 -0.11054814 -0.0060221534
0.18505645 -0.17320071 -0.08958695 0.12326736 0.055186156 -0.10153626 -0.10328136 0.011001366
-0.22159496 -0.12383587 -0.10418163 -0.26391137 -0.09186608 0.1669925 -0.04734612 0.18909307
0.029407017 0.04783321 0.20312814 -0.034917284 0.023232779 0.17570214 -0.11223768 -0.027421312
0.027083125 0.19785327 0.050622195 -0.21192433 0.09376419 -0.047829147 -0.17280555 -0.042907096
-0.19608328 0.054750554 -0.033250336 0.12968454 -0.12543441 -0.012371717 0.040101852 -0.06604358
-0.11985764 -0.029468318 -0.021495968 -0.13222142 0.2844957 -0.015415582 -0.22823828 -0.04139696
-0.21333373 -0.111624025 0.21675406 0.22008888 0.074356094 -0.05400852 -0.012761419 -0.1303712
-0.01133248 -0.047505856 -0.009097646 -0.05369564 -0.43218914 0.039202694 -0.103483625 0.046505928
-0.037722893 -0.086704835 -0.2935631 0.266876 -0.007667348 0.03749938 0.0056340043 -0.18247971
0.20938553 -0.0149839325 -0.05837487 0.15257654 0.4236036 -0.20467807 -0.12636015 -0.2571218
-0.15729082 -0.10004106 0.035380017 -0.15034194 0.27111858 -0.014830501 0.20245762 0.14838539
-0.09100018 0.01275149 -0.078316025 0.007852452 -0.058898963 -0.033590842 -0.25092575 -0.094902456
-0.047863647 0.15132791 0.0051671024 -0.04491084 0.019023648 -0.03998522 0.09254636 -0.07938333
0.048569303 -0.1696168 -0.26358894 0.1278413 -0.06087605 -0.026793579 -0.1492424 -0.1958539
-0.02064723 -0.0958446 -0.24362192 -0.015909392 -0.07814711 -0.03935772 -0.38900125 -0.25329977
00000000: 9639 77bd 1e16 62bc 58f4 5ebe f7e1 463e
00000010: 1104 b6bd de42 efbd 1067 e2bd 7c55 c5bb
00000020: 707f 3d3e 875b 31be 5d79 b7bd 9973 fc3d
00000030: e10a 623d 3ef2 cfbd 2d85 d3bd 133f 343c
00000040: cae9 62be a99d fdbd 2e5d d5bd 641f 87be
00000050: 4924 bcbd 1500 2b3e 01ee 41bd 9da1 413e
00000060: fce6 f03c c2ec 433d d300 503e 6d05 0fbd
00000070: ab52 be3c 43eb 333e dedc e5bd a9a2 e0bc
00000080: 6edd dd3c 0c9a 4a3e 3859 4f3d b102 59be
00000090: 7107 c03d 7fe8 43bd f0f3 30be 5abf 2fbd
000000a0: 0eca 48be 1e42 603d 8131 08bd 06cc 043e
000000b0: e171 00be beb2 4abc d741 243d db41 87bd
000000c0: ec77 f5bd 8b67 f1bc 5018 b0bc 0d65 07be
000000d0: 6ca9 913e a391 7cbc 4cb7 69be dc8f 29bd
000000e0: 2874 5abe 239b e4bd c7f4 5d3e fb5e 613e
000000f0: 0248 983d 0a38 5dbd 4515 51bc 0780 05be
00000100: deab 39bc 8095 42bd 4b0e 15bc f6ef 5bbd
00000110: e547 ddbe 0193 203d 39ef d3bd 007d 3e3d
00000120: 5283 1abd 4e92 b1bd e74d 96be f9a3 883e
00000130: 603e fbbb f398 193d 749d b83b f6db 3abe
00000140: 2969 563e 2b7f 75bc 7d1a 6fbd 063d 1c3e
00000150: 92e2 d83e 2197 51be 8e64 01be 78a5 83be
00000160: d810 21be 54e2 ccbd a3ea 103d 3df3 19be
00000170: 0ed0 8a3e a1fb 72bc 0d51 4f3e 57f2 173e
00000180: 4d5e babd a0eb 503c 2764 a0bd 92a7 003c
00000190: 0a40 71bd 8d96 09bd 5779 80be 385c c2bd
000001a0: ac0c 44bd b4f5 1a3e cc50 a93b 6ef4 37bd
000001b0: 7bd7 9b3c 8bc7 23bd f288 bd3d ba93 a2bd
000001c0: 9bf0 463d 07b0 2dbe 21f5 86be d4e8 023e
000001d0: 2a59 79bd 357e dbbc 00d3 18be ed8d 48be
000001e0: 6124 a9bc 2c4a c4bd 0678 79be 6a54 82bc
000001f0: 980b a0bd 9035 21bd 2c2b c7be 82b0 81be

bn3.running_var f4 [128]
0.14037026 0.16672334 0.11379008 0.19214919 0.08072249 0.10091999 0.11734826 0.08025607
0.19327813 0.065124676 0.073573 0.1122922 0.11496709 0.07434014 0.08535763 0.09149021
0.10153302 0.089610554 0.12626688 0.18050627 0.101797976 0.32650056 0.10625882 0.120280676
0.11205578 0.19799025 0.17141469 0.17051429 0.099982984 0.0983491 0.11573547 0.09516203
0.068815134 0.2219933 0.0962444 0.10295764 0.06555227 0.06999627 0.2359687 0.060589064
0.097405605 0.21488659 0.19879596 0.107820004 0.1029576 0.08736406 0.11421918 0.11721796
0.09150768 0.12734777 0.08217574 0.07839355 0.28851828 0.14855084 0.30136383 0.1448499
0.09962588 0.075119786 0.48022166 0.08891793 0.10158543 0.108002216 0.07629254 0.22446816
0.10596628 0.0966935 0.117626436 0.20826788 0.09647436 0.15460587 0.13601784 0.08479565
0.08308619 0.09269267 0.24065326 0.3334985 0.07830117 0.114379756 0.19950129 0.088905595
0.19705294 0.087230995 0.11258973 0.14814946 0.5880329 0.10156842 0.08643132 0.08674754
0.088575 0.11338179 0.17948309 0.07479679 0.13300484 0.22287203 0.28396547 0.100669906
0.17612064 0.10902136 0.078882255 0.11648414 0.084699735 0.13776167 0.22310166 0.06961879
0.1038076 0.284639 0.11159522 0.18463641 0.099151485 0.11802418 0.13237046 0.08250403
0.103801265 0.08668644 0.11799968 0.14979215 0.08241267 0.07969261 0.09152587 0.2322255
0.09454009 0.24925722 0.09404807 0.07527423 0.104992755 0.11097876 0.14062884 0.1043668
00000000: 39bd 0f3e 86b9 2a3e c60a e93d c2c2 443e
00000010: d551 a53d 24af ce3d 4954 f03d 4b5d a43d
00000020: b4ea 453e 1660 853d 71ad 963d 74f9 e53d
00000030: de73 eb3d a53f 983d fbcf ae3d 385f bb3d
00000040: 8bf0 cf3d bd85 b73d 1b4c 013e a3d6 383e
00000050: 757b d03d 152b a73e 399e d93d b755 f63d
00000060: 807d e53d f5bd 4a3e 5587 2f3e 4c9b 2e3e
00000070: e1c3 cc3d 416b c93d b806 ed3d 4fe4 c23d
00000080: f3ee 8c3d 3652 633e c91b c53d 75db d23d
00000090: 4540 863d 345a 8f3d c7a1 713e 3d2c 783d
000000a0: 977c c73d 3b0b 5c3e 2b91 4b3e bcd0 dc3d
000000b0: 6fdb d23d eeeb b23d bfeb e93d f80f f03d
000000c0: 6168 bb3d 7467 023e c14b a83d cc8c a03d
000000d0: abb8 933e b61d 183e 5c4c 9a3e 8853 143e
000000e0: a708 cc3d 67d8 993d 9ddf f53e 9b1a b63d
000000f0: 060c d03d 4430 dd3d 433f 9c3d fbda 653e
00000100: d904 d93d 3e07 c63d 21e6 f03d 2d44 553e
00000110: 5994 c53d 0051 1e3e 4348 0b3e 57a9 ad3d
00000120: 1829 aa3d a8d5 bd3d cf6d 763e 51c0 aa3e
00000130: 5d5c a03d ef3f ea3d 114a 4c3e 2314 b63d
00000140: 3fc8 493e 2aa6 b23d 7295 e63d 7eb4 173e
00000150: 5389 163f 1b03 d03d e702 b13d b2a8 b13d
00000160: cf66 b53d b634 e83d 6aca 373e 0f2f 993d
00000170: 6c32 083e 9138 643e ec63 913e 062c ce3d
00000180: f858 343e 9746 df3d 058d a13d 3d8f ee3d
00000190: 0e77 ad3d 6511 0d3e c374 643e 4c94 8e3d
000001a0: 1499 d43d 34bc 913e 098c e43d 5411 3d3e
000001b0: ef0f cb3d a9b6 f13d 1f8c 073e dff7 a83d
000001c0: c295 d43d a988 b13d d1a9 f13d 1d63 193e
000001d0: f9c7 a83d e135 a33d ea71 bb3d 85cc 6d3e
000001e0: 3c9e c13d 493d 7f3e 469c c03d 6029 9a3d
000001f0: 7106 d73d d548 e33d 0201 103e 43be d53d
